decoder_relu.pth (torch, 537554 bytes, 2 tensors)

weight f4 [2048, 64]
-0.0032771125 -0.00046365772 0.0011280843 -0.00389096 -0.00092180364 0.003514458 -0.0013953951 -0.0022220248
0.0016941975 -0.0010947728 0.0012407238 0.0034058166 -0.00033395953 -0.0029789857 -0.0014726465 -0.001972796
-0.0022424147 -0.004602582 0.0010519658 0.008959329 0.0009987832 -0.0032617995 -3.280711e-05 0.0019796544
0.0037948699 -0.0038649307 -0.0009438141 0.0020607011 -0.0014127293 -0.0029736569 -0.00045776728 -0.0015077153
-0.0069837635 -0.00020918497 0.0059720227 0.0054273778 -0.002251932 0.0045996243 -0.004996494 -0.00036337806
0.006389369 -0.0024149106 0.002106768 -0.006021561 -0.0027775108 -0.0030344706 -0.0029585317 0.0058641327
0.0026354927 -0.0009386422 0.0064532314 -0.0014304786 -0.0014351755 0.0061709094 -0.00012647855 0.0034839702
-0.0075399494 -0.0024592339 0.0019810118 0.0037902321 0.00084762764 -0.0007545194 -0.00032312298 0.0010200016
0.0014709007 -0.0036757633 0.004587361 0.0013175025 0.0047490234 -0.0031007328 0.0009167417 -0.0004270099
0.000980613 -0.004522414 -0.00095214264 0.004896271 -0.0036675222 0.0013285445 -0.0035755958 -0.0022652794
0.0037268805 0.0024804552 -0.0026718795 -0.0053007775 0.0029945564 -0.001971551 0.0032678093 1.5257513e-05
-0.004432006 0.0023478565 0.0019049237 -0.0044859853 0.008071945 -0.0028673294 -0.0029418627 -0.004078517
0.0012125822 -0.0017136186 0.00025189325 -0.0021671145 -0.004288331 0.0044564437 -0.0057831234 0.0030949472
-0.0003233708 -0.005371826 -0.0016369032 -0.0042052697 0.00018688107 -0.0007380333 0.0069254125 0.0064693294
0.003971731 0.0062950007 -0.0032480254 0.0008017596 0.0033563261 -0.0047838977 -0.00090900017 0.00525407
-0.0034043877 -0.00999196 -0.0014018893 0.003107841 0.0011284929 -0.0017851379 0.0041945176 0.00042355547
-0.004150351 -0.0032787842 0.0024085105 0.005116499 0.0033273343 -0.0018378047 0.002983476 -1.9436652e-06
0.0014490683 0.0020754165 0.0012082533 -0.0019511589 -0.003315395 -0.0053911842 -0.0016518526 -0.002244826
0.005168913 0.0034529923 0.004412037 -0.0012807515 0.0005735424 -0.0030900107 -0.00072555913 0.0011631304
-0.0032724242 -0.0036965294 -0.003609241 -0.0072219037 0.010509041 0.0013641723 0.005274609 0.004376587
-0.0027785518 -0.0011596141 0.003977578 0.0028184024 -0.0044791335 0.00011316941 -0.0045053815 -0.007091757
0.008697345 -0.007365226 0.00094425335 -0.00013822214 0.0045609945 0.004100726 0.0024669077 -0.0004533916
-0.0021105837 -0.0040107905 0.0036580977 -0.009227417 0.0017427835 0.0011199573 0.005004134 -0.00042799365
-0.00072625553 -0.0022991323 -0.004887931 -0.0028908541 -0.00063146406 0.0034960231 0.0021195437 0.0020933328
-0.0014401542 -0.0021406466 -0.0022181296 0.004904994 -0.0013673304 -0.002050737 0.0011086154 -0.0011442975
0.0058701993 0.0058399574 0.0011070226 -0.0012146812 0.0029893667 0.0014762832 0.0048052645 0.0010173168
-0.0038268995 -0.00024131857 0.0013037622 -0.0006820056 -0.002568224 -0.0016920109 0.0012754846 -0.0035449525
0.0045747375 0.0042423815 -0.003956644 -0.007083216 -0.0027408658 0.00043572098 0.002250286 0.0016152186
0.00044608995 0.0017800152 0.0014426315 -0.00077825313 -0.0031008862 0.0028838958 0.0019258513 -0.008281572
0.00018544556 -0.002466808 0.004659497 -0.0031723771 -0.0063868514 0.006318522 0.0015346328 0.0006219847
-0.0030139326 -0.0038802722 -0.002207303 -0.0012699548 -0.0027010287 0.0032566907 0.0022139694 0.0039868364
-0.0035595808 0.00023379977 0.000835794 -0.0037821692 0.0026849068 -0.003376535 -0.0021297683 0.004599309
00000000: d3c4 56bb 1617 f3b9 3adc 933a 7aff 7ebb
00000010: 32a5 71ba d252 663b b1e5 b6ba 649f 11bb
00000020: d60f de3a 7b7e 8fba c89f a23a 1f34 5f3b
00000030: 4a17 afb9 163b 43bb d105 c1ba 064a 01bb
00000040: 7af5 12bb 42d1 96bb 1de2 893a 26ca 123c
00000050: 9ae9 823a eac3 55bb 5e9a 09b8 17bd 013b
00000060: 5ab3 783b c74a 7dbb 4b6a 77ba d40c 073b
00000070: 542b b9ba afe1 42bb 7c00 f0b9 889e c5ba
00000080: 0ed8 e4bb aa58 5bb9 f5b0 c33b 25d8 b13b
00000090: 2695 13bb 72b8 963b a1b9 a3bb c783 beb9
000000a0: e95d d13b 7a43 1ebb b411 0a3b 8450 c5bb
000000b0: e606 36bb f8dd 46bb ede3 41bb e927 c03b
000000c0: 3bb8 2c3b 360f 76ba a175 d33b e67e bbba
000000d0: 801c bcba 5735 ca3b 549f 04b9 5253 643b
000000e0: ae11 f7bb 192b 21bb ddd3 013b 8b65 783b
000000f0: 5433 5e3a f1ca 45ba d568 a9b9 93b1 853a
00000100: 3dcb c03a 13e5 70bb 9351 963b 0cb0 ac3a
00000110: b29d 9b3b aa35 4bbb 7e51 703a 4ce0 dfb9
00000120: ea87 803a c230 94bb 3699 79ba e670 a03b
00000130: d05a 70bb 8e22 ae3a 8b54 6abb 1575 14bb
00000140: ae3e 743b 228f 223b b31a 2fbb 25b2 adbb
00000150: 5240 443b 2335 01bb be28 563b 85fa 7f37
00000160: 5c3a 91bb 7fde 193b a2ae f93a 2cff 92bb
00000170: 3140 043c cee9 3bbb 44cc 40bb 15a5 85bb
00000180: 82ef 9e3a 809b e0ba 8a10 8439 2606 0ebb
00000190: 2185 8cbb 5c07 923b 5b80 bdbb 99d4 4a3b
000001a0: 188a a9b9 2406 b0bb 5b8d d6ba 5ccc 89bb
000001b0: 81f5 4339 9478 41ba 92ee e23b abfc d33b
000001c0: 4b25 823b 4b46 ce3b d3dc 54bb 2d2d 523a
000001d0: cff5 5b3b 3ec2 9cbb f849 6eba 552a ac3b
000001e0: 261c 5fbb 51b5 23bc 99bf b7ba ebac 4b3b
000001f0: f0e9 933a 4afb e9ba 2a72 893b a710 de39
00000200: abff 87bb dfe0 56bb 1ad8 1d3b 4ea8 a73b
00000210: 680f 5a3b 7ee2 f0ba 6c86 433b ea6f 02b6
00000220: aaee bd3a b603 083b 415e 9e3a 07be ffba
00000230: 1947 59bb 88a8 b0bb fa82 d8ba ee1d 13bb
00000240: fc5f a93b 994b 623b d992 903b e4de a7ba
00000250: c759 163a c781 4abb 7333 3eba 2e74 983a
00000260: 2b76 56bb 7941 72bb 0489 6cbb b8a5 ecbb
00000270: 1d2e 2c3c 07ce b23a a1d6 ac3b 7969 8f3b
00000280: 5d18 36bb 31fe 97ba 5856 823b f2b4 383b
00000290: b2c5 92bb 5d55 ed38 e1a1 93bb f861 e8bb
000002a0: 4f7f 0e3c fe57 f1bb c587 773a b9ef 10b9
000002b0: 6574 953b 625f 863b d8ab 213b 31b5 edb9
000002c0: b851 0abb f36c 83bb b2bc 6f3b 982e 17bc
000002d0: 1c6e e43a 88cb 923a b8f9 a33b 5664 e0b9
000002e0: 2f62 3eba 0aad 16bb f02a a0bb 7c74 3dbb
000002f0: d688 25ba 891d 653b 0be8 0a3b 4c30 093b
00000300: 8ec3 bcba 174a 0cbb 0a5e 11bb 12ba a03b
00000310: ff37 b3ba a865 06bb f64e 913a 41fc 95ba
00000320: cd5a c03b 1d5d bf3b 8419 913a f035 9fba
00000330: 40e9 433b d87f c13a 7b75 9d3b 7d57 853a
00000340: b8cc 7abb 760a 7db9 00e3 aa3a 9fc8 32ba
00000350: a64f 28bb 77c6 ddba 292e a73a 6f52 68bb
00000360: aee7 953b ad03 8b3b bca6 81bb 531a e8bb
00000370: 19a0 33bb 7b71 e439 8979 133b beb5 d33a
00000380: 2ee1 e939 664f e93a ae16 bd3a af03 4cba
00000390: 3d38 4bbb beff 3c3b d96c fc3a 6eaf 07bc
000003a0: 2a74 4239 2caa 21bb b2ae 983b a8e7 4fbb
000003b0: cb48 d1bb 9b0b cf3b bb25 c93a b00c 233a
000003c0: 6685 45bb 2a4c 7ebb 66a8 10bb 9d74 a6ba
000003d0: be03 31bb 346e 553b 3e18 113b 02a4 823b
000003e0: db47 69bb 2628 7539 3019 5b3a 45de 77bb
000003f0: 43f5 2f3b db48 5dbb 9593 0bbb cdb5 963b

bias f4 [2048]
0.002240902 -0.0010713695 -0.0031500643 0.002520649 0.0029872858 0.0111298775 0.003374077 -0.006536722
0.014959933 0.0009386928 0.031574693 0.009816719 0.0039490242 0.009486868 -0.005383046 0.0064087007
-8.278289e-05 0.005328603 -0.004270551 0.0065542595 -0.006043327 -7.090939e-05 -0.0061269365 -0.00834794
0.002130288 -5.037725e-05 -0.0069064256 -0.005319056 -0.0036851813 0.0019623667 -0.012554082 -0.004691994
0.0069761174 0.00080908864 0.0014073579 0.014239646 0.0017927507 -0.006455715 -0.00040104226 0.0041822456
0.00093143986 -0.006064296 -0.003028939 0.00096791855 -0.005178728 -0.0071201213 -0.0073159393 -0.0060498156
-0.012651036 -0.0025889704 -0.024446396 -0.0073478627 0.0058087506 0.0011974202 -0.0017531645 -0.008020129
0.010799107 0.012640109 0.0066714315 0.016100328 -0.0009945852 0.00764307 0.0016478883 0.008516715
0.0008602391 0.0002444035 -0.0029022205 0.0062735598 0.005610299 0.001433273 -0.006755757 -0.0016569754
0.012697612 -0.0021153002 0.0042989906 0.015587058 -0.0029220614 0.016784607 -0.005313556 0.01285766
-0.014432625 -0.0045995875 -0.008434791 0.0074515115 -0.01033807 -0.014734181 -0.009223865 -0.01012824
0.00054031686 0.0022188344 -0.009048851 -0.00019090707 0.005240312 0.007817069 0.00041027702 0.0100745475
-0.008587371 0.012404076 -0.01070957 0.0061470354 0.019524574 0.005887706 -0.021906897 -0.0041087894
-0.005080229 0.013602189 0.011075457 0.00260941 0.009744324 -0.005733528 -0.007919066 0.0032152454
0.00885661 -0.01573948 0.00459511 -0.014032392 0.0055337534 -0.010339912 -0.009494413 -0.011952165
0.0048192893 0.004090606 0.0033592088 0.0062156157 0.002844435 -0.004306649 0.012975885 -0.007994404
-0.012591859 -0.02593691 0.014325703 -0.007475875 -0.0023125748 -0.0027375356 0.0020117806 -0.00056118384
0.0021412282 -0.016393749 0.0072409995 -0.0073350267 -0.0033893536 -0.0046974127 -0.0025870209 0.0034012937
0.004074174 0.002687373 0.0065817847 -0.00733674 0.020320315 -0.0074400194 -0.0076545 0.00831593
0.0055995965 -0.00037866607 -0.0029908584 0.004574577 -0.0054411064 0.004164309 0.001197883 0.015765177
-0.0010514533 -0.00095664646 0.012335206 0.0040860553 0.0020277938 -0.0033018324 -0.005622181 0.007071722
0.0038243688 -0.005388647 0.0063905683 -0.0012643334 0.010019295 0.008695317 0.016022399 0.010794722
0.0022626182 0.0027435962 0.010923243 0.013064719 -0.0021547917 0.004527601 0.0077880956 0.015915677
0.005748653 0.0033636414 0.012084261 -0.016197775 -0.01431194 0.00682986 -0.0037064066 -0.00019756114
0.0015148412 -0.0037989481 0.008232426 0.011880556 -0.0045474423 -0.0055222535 -0.004260115 -0.0022337146
0.010601681 0.011587737 -0.00817145 0.004565974 0.0048920033 0.012778861 0.0125621585 0.010010387
0.0077379453 -0.0068383696 0.007894868 -0.005980527 -0.0121628 0.00020169166 -0.004294748 0.010047204
0.0046380903 0.019857388 0.019966446 0.012273475 0.013746753 -0.00044294953 0.0017176955 -0.013326219
-0.015493724 0.012389998 0.013540708 -0.00074231275 -0.007616087 -0.004507275 0.010529956 0.0076714037
0.017733457 0.007122292 -0.013541029 0.00045769702 0.0006347113 -0.019975703 -0.012695226 -0.003061889
0.011818939 0.016536502 0.00046226746 0.009359048 -0.015195273 -0.010997642 0.003123332 -0.0080520045
-0.004187237 0.004439068 -0.007421492 -0.014987592 0.014962588 -0.008320712 0.0025150867 -0.00924361
00000000: 19dc 123b 326d 8cba 4f71 4ebb 7931 253b
00000010: 57c6 433b 175a 363c 9e1f 5d3b 0032 d6bb
00000020: 821a 753c 9c12 763a 7754 013d 4ed6 203c
00000030: d166 813b cf6e 1b3c 4364 b0bb 1400 d23b
00000040: ba9b adb8 909b ae3b faef 8bbb 1dc5 d63b
00000050: 1a07 c6bb 30b5 94b8 78c4 c8bb ccc5 08bc
00000060: 4d9c 0b3b 294c 53b8 4c4f e2bb 7a4b aebb
00000070: 1583 71bb 0d9b 003b a3af 4dbc 4cbf 99bb
00000080: ea97 e43b 0519 543a 1877 b83a 674d 693c
00000090: bbfa ea3a 768a d3bb fb42 d2b9 380b 893b
000000a0: df2b 743a 00b7 c6bb 2a81 46bb eabb 7d3a
000000b0: 52b2 a9bb e84f e9bb 8cba efbb 883d c6bb
000000c0: 4a46 4fbc b7ab 29bb cf43 c8bc 57c6 f0bb
000000d0: 5557 be3b c1f2 9c3a 70ca e5ba dc66 03bc
000000e0: bdee 303c 7618 4f3c 069c da3b d6e4 833c
000000f0: be5c 82ba b872 fa3b f5fd d73a b189 0b3c
00000100: ab81 613a 4823 8039 2e33 3ebb 6f92 cd3b
00000110: 99d6 b73b a9dc bb3a 665f ddbb de2e d9ba
00000120: a509 503c d9a0 0abb 8cde 8c3b dc60 7f3c
00000130: 0e80 3fbb df7f 893c 571d aebb efa8 523c
00000140: d176 6cbc 23b8 96bb 1432 0abc cf2b f43b
00000150: 0261 29bc a267 71bc b21f 17bc ebf0 25bc
00000160: 0da4 0d3a dd69 113b a241 14bc 3a2e 48b9
00000170: ecb6 ab3b 2a13 003c 731a d739 b70f 253c
00000180: 0bb2 0cbc 773a 4b3c 3177 2fbc 126d c93b
00000190: 00f2 9f3c a8ed c03b 1876 b3bc 06a3 86bb
000001a0: 0d78 a6bb b7db 5e3c d575 353c a302 2b3b
000001b0: a8a6 1f3c 52e0 bbbb f8be 01bc deb6 523b
000001c0: 511b 113c 15f0 80bc 9492 963b 1ee8 65bc
000001d0: 7d54 b53b bc68 29bc 748e 1bbc 03d3 43bc
000001e0: 21eb 9d3b 7d0a 863b 2c26 5c3b 5dac cb3b
000001f0: b369 3a3b ca1e 8dbb ce98 543c f6fa 02bc
00000200: 164e 4ebc a579 d4bc 5ab6 6a3c 2ff8 f4bb
00000210: 918e 17bb 3a68 33bb 14d8 033b 691c 13ba
00000220: d953 0c3b 2f4c 86bc e845 ed3b aa5a f0bb
00000230: eb1f 5ebb c1ec 99bb 028b 29bb 3de8 5e3b
00000240: a680 853b a31e 303b 03ac d73b 0969 f0bb
00000250: ca76 a63c 68cb f3bb 9ad2 fabb 8a3f 083c
00000260: d27c b73b b387 c6b9 4702 44bb 55e6 953b
00000270: 4f4b b2bb c174 883b 4902 9d3a f925 813c
00000280: ebd0 89ba 75c7 7aba 9b19 4a3c 51e4 853b
00000290: bce4 043b 8e63 58bb 463a b8bb e7b9 e73b
000002a0: 43a2 7a3b 3f93 b0bb f967 d13b fdb7 a5ba
000002b0: f827 243c ce76 0e3c 6841 833c 58dc 303c
000002c0: 6f48 143b e8cd 333b 67f7 323c 670d 563c
000002d0: 6837 0dbb 455c 943b 4833 ff3b 9861 823c
000002e0: 325f bc3b 8a70 5c3b 10fd 453c 32b1 84bc
000002f0: a17c 6abc 05cd df3b 2fe7 72bb 6a28 4fb9
00000300: a38d c63a c6f7 78bb 4ce1 063c aaa6 423c
00000310: b602 95bb 05f4 b4bb 6f98 8bbb 8363 12bb
00000320: acb2 2d3c 7eda 3d3c 8ce1 05bc 2b9e 953b
00000330: 194d a03b 6e5e 513c 83d1 4d3c 9b02 243c
00000340: 978e fd3b 6714 e0bb 7a59 013c 4cf8 c3bb
00000350: 7b46 47bc 317d 5339 f5ba 8cbb 079d 243c
00000360: 1ffb 973b f6ab a23c ac90 a33c af16 493c
00000370: 103a 613c ae3b e8b9 4c24 e13a 3756 5abc
00000380: 63d9 7dbc 6bff 4a3c d9d9 5d3c c497 42ba
00000390: 5e90 f9bb c3b1 93bb d685 2c3c 6660 fb3b
000003a0: c145 913c 1e62 e93b 31db 5dbc 0ef7 ef39
000003b0: c162 263a 16a4 a3bc a3ff 4fbc f9a9 48bb
000003c0: 39a4 413c 8f77 873c 7d5c f239 b156 193c
000003d0: 98f5 78bc 742f 34bc d1b0 4c3b 8eec 03bc
000003e0: 1735 89bb 9a75 913b fd2f f3bb 848e 75bc
000003f0: a525 753c 9853 08bc 27d4 243b 8372 17bc
