decoder_elu.pth (torch, 537541 bytes, 2 tensors)

weight f4 [2048, 64]
00000000: 0813 833b 4c3c 07bc d462 003a d087 80bb
00000010: e2e1 a83b e875 b539 b8a1 15bb 10ad 7a3b
00000020: d1d0 cb3b e248 ec3a dbed 13ba 1e04 1dbb
00000030: 57f5 9fba da31 8a3a 702b 143b 8fc1 9e3b
00000040: 6b09 3e39 65ed 213b 0375 953a 36e3 e0ba
00000050: b864 dab9 88ec f137 e7a3 93bb dd98 90bb
00000060: 2029 cf38 97d3 e3ba 5074 803b 3c37 ef3b
00000070: 3aae 71bb 5792 363b e56e 843a 802e 2a3b
00000080: e7a6 193b 9347 6dba 5a62 db3b 5a1c f53a
00000090: e4be d5ba 0fd5 03b9 db76 283b 22cf 173a
000000a0: 524d 0cbb 85c2 99bb 9ba6 bebb 8c6f 7bbb
000000b0: fd88 3dbb bf5d 8ab9 779c dd3b 9d01 5f3b
000000c0: 6ff8 c83b 5678 ae3a 0d5c 8dbb 3603 1bbb
000000d0: 327f 003a 9541 8e3b 057f 8abb 0aff e73a
000000e0: 2eda 2ebb 3be9 95bb 25c6 06bc 7598 18bb
000000f0: a7a5 bdb9 7271 32bb 2c03 64bb 9164 1e3b
00000100: 1be9 efbb 2e35 5c3b 46da 0eba 777b 83b9
00000110: 9f69 d3ba 5943 e93a fe6f 373a e84b babb
00000120: d83e a0bb 90cd 9f3b bd0e 80ba 0d44 243b
00000130: cfac 2fb9 abb9 b7bb ef1c 0a3b 0503 ed39
00000140: cae9 81bb cfaa b63b d7b2 e8ba 5450 2fbb
00000150: 6520 1cba cbc3 1aba 20c9 883a b41d 623b
00000160: 1723 a33a 5020 373b c62a 0ebb bf73 a2bb
00000170: a571 923b 1f04 d9ba 5786 643b c920 a93a
00000180: f984 95b9 dc61 073b cf80 7a3a 942b 4039
00000190: 929e c7ba a8bc feba 8ab7 493a a6af 6f3a
000001a0: 9e38 683b 0dfe 873b c3b3 f4b9 4e2a 32b9
000001b0: 5ab1 85bb b46b 28bb 81ca 26bb 5d5c 47ba
000001c0: 6e08 deb9 4886 cbbb 049c b438 90a4 64bb
000001d0: 784a a8bb b29b f539 9da4 f33a 7fad 193b
000001e0: 7b41 9039 88e1 3e3b c5df 313b 774b c63a
000001f0: f1d1 dd3a a656 01bb 22b0 e43a 94d6 633b
00000200: 56fe 32ba 1679 9c39 3dc7 1fbb f43d 80bb
00000210: f16e ac3a f40c b8b8 db54 78ba fcfc d039
00000220: ebb7 5c3a 0856 c9ba ed86 8138 870d edba
00000230: 24f3 753a c5ec 2cba fa72 0dbb 929a 3f39
00000240: 6a15 f63a f76a 583b 04aa 873a 28f1 cb38
00000250: 5949 0d3a 113d 0cbb 8e4e a638 6fcd a03a
00000260: 7be6 64ba c187 063b ea1d 803a b96b 9439
00000270: 6e85 03b8 09d5 b73a 6d40 61b9 9876 9d3a
00000280: 673d 513b 7195 303b 7f3f 453b a4bc 283b
00000290: cfcf 63ba d603 e536 5b3d c8ba 6569 0db9
000002a0: 0284 6d39 af83 11ba fb6c ec3a 4cb9 84ba
000002b0: 969b 1bbb 542c bb3a 7427 6c3b 716d fcba
000002c0: 0a5a 913b a76f f838 e80c 58ba 99ac 82bb
000002d0: c026 5dbb 3f49 903a 9e0d 0c3b 34d8 4abb
000002e0: 4f30 0fbb ba84 3cba 3112 f2ba 5605 24bb
000002f0: 14b5 823b c7f7 16ba 4fb3 b939 fc10 0c3b
00000300: b4c0 74bb bd56 223b aeb4 d1bb 42d0 55ba
00000310: 92b1 79bb 8b25 c13a 27c5 163b 812c 90b9
00000320: c072 e2b9 c0b8 47bb 4829 b9b9 25fc 55bb
00000330: 0529 b73a f4f6 853b a08e b1bb 7231 063b
00000340: 79dc 203b 0536 94bb a9ea 453b 6c57 fb3a
00000350: bb91 27ba d084 bd3a b4b2 abba be46 9fb9
00000360: cde0 573b 80dc a3bb f323 bf3b 01d2 663b
00000370: fd57 783b 73b2 c8ba 7ab7 5fbb c96d 09bc
00000380: eb73 9bbb 8f58 5fbb a6be f03a 80d3 a43a
00000390: e800 0f3b 724c 833b 814e bcba c22b 0eba
000003a0: 94ae c7ba cc77 28bb fbd1 8e3a 69aa 0f3b
000003b0: 0c03 c33a 0dd0 9a3b cbed 1ebb cc1a abbb
000003c0: 32fb 3ebb 497e a73a a505 703b 37ad 2b3b
000003d0: 559a 823b 60dc f53a 8c19 38bb d461 e63a
000003e0: 932b 4fbb e41b f33a fb07 aaba 5c87 0a3b
000003f0: 7b9d c339 1e50 da39 a005 18bb 61a0 13ba
0.0040000714 -0.008254122 0.0004897539 -0.00392244 0.0051538805 0.00034610857 -0.0022831988 0.0038250126
0.006219961 0.0018027092 -0.0005643048 -0.0023958753 -0.0012203854 0.0010543421 0.0022608899 0.0048448513
0.0001812332 0.0024708149 0.001140267 -0.0017157558 -0.00041655242 2.8839582e-05 -0.0045056227 -0.004412754
9.878189e-05 -0.0017381784 0.0039201155 0.0073002856 -0.0036877529 0.0027858221 0.001010385 0.0025967658
0.0023445429 -0.0009051498 0.006695074 0.0018700466 -0.00163075 -0.00012572504 0.002570561 0.0005791058
-0.0021408391 -0.004692378 -0.0058182008 -0.0038366048 -0.0028920763 -0.00026391257 0.006763037 0.0034028061
0.006133131 0.0013311009 -0.004313952 -0.0023653037 0.0004901766 0.004341314 -0.0042265677 0.0017699909
-0.0026680338 -0.0045749224 -0.008225952 -0.002328423 -0.0003617231 -0.0027228263 -0.003479193 0.002416883
-0.0073214895 0.0033601034 -0.00054493954 -0.00025078256 -0.00161295 0.001779656 0.0006997584 -0.0056853183
-0.004890304 0.0048768 -0.0009770017 0.0025064975 -0.00016753677 -0.00560685 0.0021074375 0.00045206412
-0.0039646374 0.005574561 -0.0017753494 -0.002675076 -0.0005955755 -0.0005903809 0.0010435916 0.0034502568
0.0012446371 0.0027942844 -0.0021692975 -0.0049576457 0.004469114 -0.0016557014 0.0034870112 0.0012903447
-0.00028518567 0.0020657694 0.0009555937 0.00018326781 -0.0015229753 -0.0019434886 0.0007694891 0.00091433
0.0035434137 0.0041501583 -0.0004667324 -0.00016991163 -0.00407998 -0.0025698962 -0.0025450292 -0.0007605011
-0.0004234942 -0.006211076 8.612129e-05 -0.0034888126 -0.0051358305 0.00046846044 0.0018588487 0.002344936
0.00027514607 0.0029126126 0.0027141434 0.0015128691 0.0016923529 -0.0019735484 0.0017447511 0.003476535
-0.000682806 0.00029844855 -0.002438023 -0.0039136354 0.0013155622 -8.7762164e-05 -0.00094730937 0.0003986134
0.000841974 -0.0015360722 6.176331e-05 -0.0018085697 0.0009382239 -0.00065965607 -0.0021583424 0.00018272761
0.0018774692 0.003302274 0.0010350351 9.724713e-05 0.0005389653 -0.0021398703 7.930129e-05 0.0012268255
-0.0008731854 0.0020527693 0.000977454 0.0002830902 -3.13571e-05 0.0014025281 -0.00021481673 0.0012013493
0.0031927468 0.0026944543 0.003009766 0.0025747204 -0.00086903287 6.8251784e-06 -0.0015277074 -0.0001348607
0.00022651258 -0.00055509334 0.001803785 -0.0010126024 -0.002374386 0.0014280179 0.0036034258 -0.001925869
0.0044357823 0.000118463584 -0.0008241669 -0.0039878604 -0.003374502 0.0011008157 0.002137042 -0.003095162
-0.0021848863 -0.00071914087 -0.0018468556 -0.0025027595 0.0039888714 -0.00057589676 0.00035419545 0.0021372428
-0.0037346305 0.0024770938 -0.0063997125 -0.0008156338 -0.0038100225 0.001473592 0.0023005696 -0.00027498978
-0.00043191575 -0.003047511 -0.00035316707 -0.003265151 0.0013974017 0.004088277 -0.0054186136 0.002047625
0.0024545474 -0.004523041 0.0030199683 0.0019175834 -0.000639226 0.0014459137 -0.0013099522 -0.0003037955
0.0032940388 -0.005000651 0.005833143 0.0035220387 0.0037894242 -0.0015311971 -0.003413646 -0.008387991
-0.004744043 -0.0034079885 0.0018367365 0.0012575239 0.0021820609 0.0040069157 -0.0014366658 -0.00054233905
-0.0015234523 -0.002570617 0.0010896319 0.002192164 0.0014878227 0.0047245086 -0.0024250622 -0.0052217003
-0.0029141423 0.0012778725 0.0036624458 0.0026195773 0.003985683 0.0018757693 -0.00280914 0.0017576762
-0.0031611666 0.0018547741 -0.0012972349 0.002113781 0.0003731063 0.00041639892 -0.0023196712 -0.00056315033

bias f4 [2048]
00000000: 4acc 963b 6b5d 203b 3dc3 3ebb 91c8 853b
00000010: 13fc 15bb e550 e3ba f19d 5dbb 5973 de3a
00000020: 69c1 ccb9 a476 e53b 0936 323c 1e72 653c
00000030: f75b de3a fe9b d83b 134d 423c 4364 033b
00000040: a410 6ebb 0fe9 de3b f657 903b 8649 d6bb
00000050: 9e19 6e3b 61f9 e9bb 77b3 2ab8 4455 c6bb
00000060: e807 10bc 76c0 503b b9f8 dd3a a4c5 d83b
00000070: 6d79 30bb 0b23 b63b f09b 4d3b 794e 483b
00000080: c641 2d3c 402c 6d3c 6c3a ac3b 8800 3eba
00000090: 496f 69bc 84a9 9c3b ab04 da3b f0da f238
000000a0: bf5d 65bc 396b 21bb d7c1 f3bb 180f 2abc
000000b0: 5bd3 40bc d39c 0cbb a026 d03b b1e5 9abb
000000c0: cab4 1a3c 8895 5e3b 20e0 14ba c2d9 f639
000000d0: fcc6 85ba 38d3 ee3a ae13 9bba eec2 883b
000000e0: 32f6 b03b 76ed f0bb 7b51 c23b c73f 483b
000000f0: eb9d 10bc 70fd 2b3b 7206 d33b 5e2b bf3b
00000100: 4393 61ba bcb7 10bc 6949 c3bb 7f34 f03a
00000110: 1d5c 1d3c ab72 123b a944 86bc 9f76 063c
00000120: 89fe eabb 03ab 153c f456 0cbc d9d2 8bbb
00000130: d420 da3b f51e 453c 1f72 17bc b109 a43b
00000140: b21d 22bc 15ba 99bb 18e3 0039 2c59 d43b
00000150: d54f dcbb 80e2 23bc 9890 abbb a946 3cbb
00000160: fb22 98bb f313 af39 9774 093c 6e21 f13b
00000170: bbfe 0ebb 44e8 cabb 5b3e f93b 5fbc 4ebc
00000180: 994f 923b 6b02 013c ab6c 37bc de97 e0bb
00000190: af12 b43b e6c5 93bb b606 033c c9dd 153c
000001a0: ea3c c03b a1e3 2d3c 290b 9bba 3fdb 8d3b
000001b0: 16f3 7d3c 1ab2 2abb 780c 01bb 9015 053c
000001c0: 0345 f9b9 6316 133c 1381 84bb 2cd7 05bb
000001d0: 8aba 4d3c 652f 83bc c58e 593a 59f5 ccbb
000001e0: efda c13b eaa6 b2bb 6b39 ef3b 2c3b 913c
000001f0: c13f 273a 37c4 1d3b 9c21 07bc 3930 133c
00000200: 9f8e 773c 7370 26bc 8de3 b13a e352 54bb
00000210: d86e 23bc 13e2 363b 5a67 4b3b 7027 873c
00000220: 65eb 963b 27a2 6d3b 37d0 b33b c13d 4bbb
00000230: 52b3 acbb e570 b1bb 9aec 4d3c 1531 f7bb
00000240: e0f9 be3b c869 5dbb 0fa2 0a3b 7cd3 633b
00000250: c026 6b3c e03c 9f3b 8da0 eabb 60f2 c83a
00000260: bb3c 1abb 0f11 3aba 0364 6dbb 8900 85bc
00000270: 1beb 453c 785d 40bb 4531 563c 5abe 633a
00000280: 5290 06bc 5074 393b eb53 d43b 2070 a2bb
00000290: cf25 df3b 2d23 bfbb 53cc 4ebb 5aad 88bb
000002a0: c3da ef3a 1492 213c 6eb9 953c c9dc 1dba
000002b0: 796e 88bb a002 633c fe25 e1bb a253 39bb
000002c0: 15cb d1bb fe1b d73b 6ca9 03bc 43af a03b
000002d0: ecbe 1ebc 6974 38bc e809 eb3b e8af 9bbb
000002e0: 5e20 fbbb ed71 48bb 8886 803c d4a3 4a3c
000002f0: fdcc 333c 9f35 4c39 652b 1a3a 32d8 3ebc
00000300: fa7c 703c 441e 513c 5e8e f73a 2c32 913b
00000310: 39d9 3c3c 148e 8a3b 0550 6fbb 9ba5 c1bb
00000320: 096f a8bb 9801 433b 435f 74bc 952d e5ba
00000330: 8b4e 9bba 800e e1bb e76e 9dbb 1249 2ebc
00000340: 7550 093b 2205 94bc f75a 993a d819 24bc
00000350: aa28 b3ba c695 3b3b ea37 47bc 378a 5d3b
00000360: dbf9 8dbc 1a2c b4ba 5b36 8e3b 3bf3 d13b
00000370: 3f7f 2abc 2f8a d33b 1c29 24ba 7a64 e93a
00000380: 0fbb 5f3a eb09 b6bb a91e 85bc 53ce 3abb
00000390: eb41 16bc 6f9a afbb 50e9 c73b dfe5 863c
000003a0: 5d1c f5ba 4ef4 85bc 8091 a3bc 4af7 3abc
000003b0: 00ce 51bc 8040 59bc 36c7 b6bb e5c7 f3bb
000003c0: b726 45bc d7b4 e43a e9ca 0ebc 70b2 b339
000003d0: 1c12 adbb 9702 a1bc 23d6 29bc 7d75 31bb
000003e0: 5739 a4ba 5a09 b0bb 0368 ccbc 3a51 70bc
000003f0: d537 98bb 0098 6cbc e09e 7abc 3c75 a4bc
0.00460199 0.0024469744 -0.002910807 0.0040827473 -0.0022885844 -0.0017342834 -0.0033816064 0.0016971632
-0.00039054014 0.0070026685 0.010877141 0.014004258 0.0016964664 0.0066103926 0.011859196 0.0020048774
-0.0036325837 0.006802685 0.004405017 -0.0065395264 0.0036331187 -0.007140324 -4.0698298e-05 -0.006052645
-0.0087909475 0.0031852997 0.0016935087 0.0066153575 -0.0026927844 0.0055583767 0.0031373464 0.0030564351
0.010574764 0.014475882 0.005255988 -0.0007248004 -0.014247724 0.00478095 0.0066533885 0.000115802395
-0.013999402 -0.002463056 -0.007438879 -0.010379575 -0.011769141 -0.002145578 0.0063522607 -0.0047270884
0.0094425175 0.003396364 -0.0005679149 0.0004708302 -0.0010206397 0.0018220907 -0.0011831427 0.004173628
0.0054004425 -0.0073525263 0.0059301234 0.0030555592 -0.008826713 0.002624359 0.0064399773 0.005834027
-0.00086050126 -0.008832868 -0.005959679 0.0018326192 0.009604481 0.002234618 -0.016390162 0.008206992
-0.0071714562 0.009135011 -0.008565653 -0.0042670784 0.0066567454 0.0120313065 -0.009243517 0.005006038
-0.009894775 -0.004691372 0.0001229163 0.0064803567 -0.006723384 -0.010002732 -0.005235743 -0.002872864
-0.004642842 0.00033393464 0.008389614 0.0073587215 -0.0021819312 -0.006192239 0.0076063103 -0.012618153
0.004465055 0.007874112 -0.011195342 -0.0068540415 0.0054953913 -0.0045096753 0.0079972055 0.009147116
0.0058666365 0.010613353 -0.0011828888 0.0043291147 0.015499851 -0.0026046098 -0.001969127 0.008122817
-0.000475444 0.008977505 -0.004043707 -0.0020422442 0.012556681 -0.01601381 0.00082991674 -0.0062548337
0.0059159915 -0.0054520266 0.007300546 0.01772841 0.00063800445 0.0024073252 -0.008247759 0.008983665
0.015109687 -0.010158646 0.0013571844 -0.0032398037 -0.009975158 0.0027905747 0.0031036944 0.016498297
0.004605698 0.003625998 0.0054874676 -0.003101215 -0.0052704 -0.0054150694 0.012568617 -0.007543693
0.0058281273 -0.0033784974 0.0021153723 0.0034763506 0.0143525 0.004859552 -0.0071602524 0.0015331022
-0.0023534733 -0.0007097879 -0.0036222942 -0.016235607 0.012079979 -0.0029352587 0.01307327 0.00086877274
-0.00821312 0.0028298087 0.0064797304 -0.004957214 0.006809927 -0.0058330507 -0.0031554892 -0.0041710557
0.0018299449 0.009861488 0.018276896 -0.0006021974 -0.00416356 0.013855606 -0.006870984 -0.0028278609
-0.006402383 0.006564616 -0.008035999 0.0049037053 -0.009689074 -0.011258223 0.007172812 -0.0047511943
-0.0076637706 -0.0030585483 0.01568915 0.012368161 0.010974166 0.00019474931 0.00058811 -0.011648225
0.014678234 0.012763564 0.0018887033 0.00443103 0.011526399 0.004228363 -0.0036516201 -0.0059096343
-0.0051401895 0.0029755589 -0.01491529 -0.0017484898 -0.0011848969 -0.0068681836 -0.0048044804 -0.0106375385
0.0020952497 -0.018068854 0.0011700083 -0.010015927 -0.0013668735 0.0028623207 -0.012159327 0.0033804306
-0.017331054 -0.0013746053 0.004339976 0.006407169 -0.010406314 0.0064556818 -0.0006262229 0.0017806434
0.0008534649 -0.0055553815 -0.016249971 -0.0028504326 -0.0091709895 -0.005358986 0.006100811 0.016467033
-0.001870047 -0.016351845 -0.01996684 -0.011411497 -0.012805462 -0.013260007 -0.005577947 -0.007439601
-0.012033156 0.0017448914 -0.00871537 0.00034274487 -0.0052817 -0.019654555 -0.010365996 -0.0027078085
-0.0012529296 -0.0053722085 -0.02495194 -0.014667803 -0.0046453276 -0.0144405365 -0.015296668 -0.020075433
