decoder_linear.pth (torch, 537580 bytes, 2 tensors)

weight f4 [2048, 64]
000000 92 58 5d 3a 75 ab 99 ba a6 ea a6 ba bb 09 58 3a
       0.0008443679 -0.0011724072 -0.0012734726 0.0008241196
000010 fa ea c7 3a 8c e0 20 ba e0 55 90 b9 9a ca 98 b9
       0.0015252524 -0.0006136976 -0.00027529802 -0.0002914265
000020 5b c3 b5 ba 30 01 dc 39 ef 34 85 ba 05 1c 5b ba
       -0.0013867425 0.00041962555 -0.001016287 -0.0008358362
000030 e4 3f 13 3a ae 7a a6 b9 be e0 1b ba a3 4b 61 39
       0.00056171254 -0.0003175339 -0.000594627 0.00021485849
000040 dd 2d 6c b9 a0 88 18 39 dd 2f 7d 3a 6d 72 45 3a
       -0.00022523799 0.00014546746 0.0009658316 0.00075320044
000050 63 3e 7e ba da 69 03 ba c9 d1 ba 38 65 43 a0 b9
       -0.00096986274 -0.00050130265 8.908247e-05 -0.0003056779
000060 24 64 63 3a 3c fd ac ba fa 93 00 ba ea 5d c0 3a
       0.0008674285 -0.0013198028 -0.0004904863 0.0014676426
000070 10 2e f2 b9 25 23 23 3b 13 b4 44 3a ae 32 3c 3a
       -0.00046192156 0.0024892774 0.000750364 0.0007179183
000080 5e 97 bf 3a 45 4d 25 3a a4 63 10 ba b3 c5 44 ba
       0.0014617254 0.00063057645 -0.00055080117 -0.0007506266
000090 c7 45 e8 39 f4 4e a5 3a 58 60 ef 36 39 8e f8 38
       0.00044302476 0.0012612031 7.133971e-06 0.000118520526
0000a0 75 eb 54 b8 65 07 24 b9 5b 6f c7 3a 85 d8 df 39
       -5.0764025e-05 -0.00015643013 0.0015215682 0.00042695194
0000b0 f9 b2 ad b9 fe e1 e9 39 11 41 0b 3a 24 22 34 b9
       -0.00033130476 0.000446096 0.0005312125 -0.00017178856
0000c0 97 0b fe 3a b8 b3 97 3a 0c e1 c4 b8 23 e7 44 ba
       0.0019382116 0.0011573946 -9.3879265e-05 -0.00075112487
0000d0 db a0 c3 ba 3d d8 49 b6 52 64 de ba 23 29 0a bb
       -0.0014925258 -3.0077201e-06 -0.0016967154 -0.0021081648
0000e0 7f 4e b2 ba b3 05 38 ba 0d 1c 1e ba 17 f8 89 3a
       -0.0013603716 -0.0007019892 -0.00060314016 0.0010526207
0000f0 98 1d b8 3a 4d e8 6e 3a 43 01 04 ba 56 63 2e 3a
       0.0014046906 0.0009113595 -0.00050355884 0.00066523755
000100 8c 21 15 ba 40 64 9f 3a 4a 60 08 39 9f 3e c1 38
       -0.0005688898 0.0012160614 0.00013005841 9.214621e-05
000110 0e a3 3d ba cc b8 86 39 0a 18 c6 39 e9 92 5d 38
       -0.0007234075 0.00025696156 0.00037783413 5.2827327e-05
000120 ea 8c ef 38 16 fa ce b9 11 02 21 3a 92 52 d1 b9
       0.000114226554 -0.0003947771 0.00061419705 -0.00039925106
000130 b6 c0 49 39 12 3a 2c 3a 11 10 c4 b9 67 34 a3 b9
       0.00019240644 0.00065699324 -0.00037396004 -0.00031128826
000140 a3 92 23 39 f8 27 b8 ba 44 25 68 ba 6f cb 00 b9
       0.00015599518 -0.0014049998 -0.00088556507 -0.00012282816
000150 e1 4c 71 39 23 d3 90 b9 78 47 3e 39 46 11 b6 39
       0.0002301219 -0.0002762313 0.00018146436 0.00034726615
000160 b8 ca c8 39 68 f6 0c 3a 72 44 03 ba d2 ee a6 38
       0.0003829801 0.00053772936 -0.00050074526 7.9599806e-05
000170 5b 49 31 ba 17 35 b1 b9 52 51 d5 b8 d2 f3 6d 39
       -0.0006762945 -0.00033799626 -0.000101717786 0.00022692911
000180 15 52 e8 b9 76 09 a0 b9 97 c5 ac 39 71 2a fd 38
       -0.00044311644 -0.00030524627 0.00032953612 0.000120718854
000190 fb 3b 88 b9 ee 09 61 38 b1 1e 23 ba 8e 85 7b b9
       -0.0002598463 5.3653428e-05 -0.000622253 -0.00023986978
0001a0 a9 bb 4e ba 1a fc 41 39 b7 9e af 38 16 56 e0 b9
       -0.000788624 0.0001849983 8.374213e-05 -0.00042788748
0001b0 bb 09 ef b9 76 fe a2 38 39 94 9e 36 a5 91 77 ba
       -0.00045592882 7.772159e-05 4.7260223e-06 -0.0009444005
0001c0 30 9b 74 b8 0b 5a ae 39 a4 12 54 ba ae 82 c4 38
       -5.8318663e-05 0.00033254953 -0.0008089936 9.370349e-05
0001d0 4b 15 96 b9 e6 9f 7f 3a 95 89 20 ba 37 30 ca 39
       -0.00028626094 0.0009751305 -0.0006124017 0.00038564365
0001e0 69 3a 33 3a f2 30 82 38 7d 97 80 ba ee 38 c2 b8
       0.0006837012 6.208e-05 -0.0009810772 -9.261245e-05
0001f0 31 b5 10 ba 55 d3 cc ba 36 27 e2 39 c3 e0 c8 39
       -0.00055201637 -0.0015626947 0.00043135294 0.00038314433
000200 db d3 18 3a db a9 bd ba ef d8 31 39 4d 6a 1e 3a
       0.0005829909 -0.0014470177 0.0001696085 0.0006043062
000210 54 d0 fb 39 fc 3b 72 ba e6 5c 10 ba 41 ad a3 b9
       0.00048029667 -0.0009240506 -0.0005507007 -0.00031218867
000220 e1 0b 6b ba 05 32 97 39 7b 30 af ba 36 1d 17 ba
       -0.00089663087 0.00028838232 -0.0013365889 -0.00057645456
000230 da 2d 8c 39 4a 55 5c ba 30 40 74 39 3a 78 f8 39
       0.00026737043 -0.0008405043 0.00023293565 0.00047391822
000240 0f 5d b8 b9 8a 42 c5 3a 3c 70 91 3a d2 7c 08 3a
       -0.0003516455 0.0015049737 0.001109607 0.0005206588
000250 ef a6 6a ba d3 4a f0 b9 fb 69 9c 38 da 42 86 37
       -0.00089512666 -0.00045832116 7.4584e-05 1.6005175e-05
000260 c0 aa 9c 39 b6 e7 5b ba 75 a4 41 39 b1 c4 98 3a
       0.00029881857 -0.00083887146 0.0001846718 0.0011655298
000270 2d 99 8b 39 2a e9 d8 3a a2 37 97 39 70 08 12 3a
       0.0002662627 0.001654898 0.00028842414 0.00055707153
000280 48 0f 75 3a ce f1 53 3a 66 4a 09 b8 b3 d6 ae 38
       0.00093482854 0.0008085043 -3.2732634e-05 8.3369574e-05
000290 3d 65 cf 39 be 82 00 3a ef 00 4d 3a c5 3c 69 39
       0.00039557545 0.00049022946 0.00078202685 0.0002224325
0002a0 69 76 eb 39 02 79 13 b9 2b af f2 39 51 31 09 3a
       0.00044910915 -0.00014064091 0.00046288347 0.0005233484
0002b0 77 29 d0 39 cc 71 47 b9 f9 a6 5e b6 91 2c 25 3a
       0.00039703745 -0.00019020512 -3.3177769e-06 0.00063008914
0002c0 9b 01 93 3a 6b 0b 3f 39 31 da 48 39 d3 f9 3b ba
       0.0011215688 0.00018219433 0.00019154769 -0.00071707106
0002d0 3d f0 6c ba 65 3a 42 ba e5 fe 29 ba 5a df 9d ba
       -0.0009038484 -0.0007409214 -0.00064848206 -0.0012044713
0002e0 08 58 5e ba 1c 5f 38 ba e1 4d 3e 3a a3 f4 fd 39
       -0.00084817456 -0.00070332154 0.00072595297 0.0004843819
0002f0 e0 ae 7e 3a c1 af e2 3a 5d 00 71 ba ff 65 8a b9
       0.00097153895 0.001729481 -0.00091934745 -0.00026397404
000300 31 86 86 b8 75 d3 1c 3a fa 6b a3 b9 f1 7f 44 b9
       -6.414613e-05 0.0005982437 -0.00031170232 -0.00018739678
000310 d4 0b 97 38 9a 60 31 3a cd cd ba 39 d2 db 0f 39
       7.202444e-05 0.0006766409 0.00035630018 0.00013719432
000320 1f 00 d8 39 d2 f5 f5 37 e7 e6 27 3a 99 0b ee 39
       0.0004119882 2.9320745e-05 0.00064049516 0.00045403538
000330 fd cf 97 b8 79 b3 fb 39 e7 2a 17 b9 41 4e 81 b9
       -7.238982e-05 0.00048008168 -0.00014416465 -0.000246631
000340 d1 9a 6d 38 e0 36 3b ba 84 54 e2 b9 cf 57 89 b9
       5.6649387e-05 -0.0007141661 -0.00043169048 -0.000261961
000350 1c 72 d6 39 a4 81 3f 39 ac 25 bf b8 df 61 b5 b8
       0.0004090228 0.00018263474 -9.114607e-05 -8.6489825e-05
000360 b2 51 e4 b8 9f 53 a2 39 ae b4 87 b9 31 28 73 ba
       -0.00010887104 0.0003096135 -0.00025883823 -0.00092757033
000370 5a fe 30 b9 16 73 32 ba b2 97 b8 b7 91 28 a5 b9
       -0.00016879421 -0.000680731 -2.2005148e-05 -0.00031501477
000380 0e 88 82 b9 7e 46 9f b9 d8 00 64 b8 23 e0 b7 b9
       -0.000248969 -0.00030379364 -5.4360222e-05 -0.00035071475
000390 07 60 bb b8 d7 23 53 b8 e7 9a 21 ba a2 7c 3a b8
       -8.934741e-05 -5.03397e-05 -0.0006164745 -4.446193e-05
0003a0 5f 3e 76 b8 da 40 4d b9 3f 9b 1c 38 0c 97 45 b9
       -5.8709058e-05 -0.00019574483 3.7337883e-05 -0.00018843653
0003b0 26 cb 12 b9 d2 2c 40 39 9b fc 70 39 53 06 fc b8
       -0.00013999324 0.00018327244 0.00022982286 -0.000120174744
0003c0 93 d3 ca b9 ac a6 6b 38 56 c4 d0 38 53 7e a9 39
       -0.00038686077 5.618359e-05 9.954783e-05 0.0003232831
0003d0 28 dd b5 39 dc f3 21 39 6e 10 bc 39 06 f9 8c 39
       0.00034687785 0.00015445001 0.00035870395 0.00026888418
0003e0 a0 9c 76 38 36 9c e1 39 01 e4 00 ba 4d 03 8c b9
       5.879684e-05 0.0004303173 -0.0004916788 -0.0002670534
0003f0 8b 75 df b9 54 bc 73 ba 48 3d e7 39 57 e7 84 39
       -0.0004262145 -0.00092977774 0.00044105412 0.00025349364

bias f4 [2048]
000000 e4 32 67 39 3b 74 1e b8 aa 59 23 39 4a f5 81 b8
       0.00022048835 -3.7778384e-05 0.00015578294 -6.196888e-05
000010 2d d8 02 39 ed ca 24 38 61 70 a8 b8 47 59 d7 b7
       0.00012478298 3.9289636e-05 -8.0317965e-05 -2.567157e-05
000020 18 a7 5f 38 59 fe 7a 38 bc 7e c3 b7 64 59 3c b8
       5.332296e-05 5.9841524e-05 -2.3304827e-05 -4.4905944e-05
000030 45 67 5e 38 58 5f 83 37 43 52 53 b8 df d6 72 38
       5.30251e-05 1.5660815e-05 -5.0382932e-05 5.789741e-05
000040 02 52 9f b8 97 c2 c6 38 ca d0 dd b8 03 50 82 b8
       -7.596986e-05 9.477621e-05 -0.00010576991 -6.2137864e-05
000050 55 b1 b6 b7 8d e3 e1 37 06 24 e4 b8 45 44 48 35
       -2.1778667e-05 2.6928052e-05 -0.00010878597 7.460515e-07
000060 f3 20 78 38 af 75 4c 38 88 87 45 b8 dd 79 04 35
       5.9158494e-05 4.874699e-05 -4.7094683e-05 4.9351166e-07
000070 11 23 c6 38 10 d0 f2 b8 f2 25 31 38 fd 14 06 b9
       9.447907e-05 -0.00011578214 4.2235428e-05 -0.00012787055
000080 bb 1c c6 b8 d9 7d 12 38 60 fd f1 b7 ba 15 05 38
       -9.446727e-05 3.4926317e-05 -2.8847426e-05 3.1729905e-05
000090 69 36 17 36 7a 14 c8 b8 d5 a0 ae 38 5f 1b 87 38
       2.2532424e-06 -9.540557e-05 8.326924e-05 6.4424e-05
0000a0 60 12 74 38 36 81 b0 b8 e9 1b b2 36 8e ae c3 36
       5.8191246e-05 -8.4164014e-05 5.3080626e-06 5.8317737e-06
0000b0 6d 24 0a 37 4f 50 b9 37 cf d9 6d 37 80 6b ba b7
       8.233922e-06 2.2091115e-05 1.4177013e-05 -2.2222986e-05
0000c0 2e c9 06 b9 55 3c 9c 38 fd 55 0d 38 75 8e 03 39
       -0.00012854181 7.4498974e-05 3.3697102e-05 0.00012546203
0000d0 c8 3a c1 38 77 2d c5 38 fc 4d 31 b8 a5 00 15 38
       9.213906e-05 9.4021605e-05 -4.2272717e-05 3.552497e-05
0000e0 a6 b6 83 b8 df 8f e0 b8 eb 23 02 b9 32 96 77 38
       -6.280588e-05 -0.000107079504 -0.00012411147 5.902927e-05
0000f0 40 eb 04 39 dc ce 0e b9 6b d7 28 38 be 44 c8 38
       0.00012676138 -0.00013619236 4.0254945e-05 9.5495474e-05
000100 8f 38 94 b7 a7 84 8c b5 4f 51 3b b8 a8 4b 4d 39
       -1.7669312e-05 -1.046942e-06 -4.466e-05 0.00019578508
000110 1a 15 0a b8 0f d1 28 b8 da c4 0d 39 4f 1e 2d b7
       -3.2921416e-05 -4.0249022e-05 0.00013520141 -1.031866e-05
000120 29 a4 ef 38 c5 f0 03 b8 3c fc 16 39 cf f2 c0 37
       0.00011426985 -3.1457068e-05 0.0001439908 2.300125e-05
000130 9a 9b 30 38 8d 31 0d 39 2c d3 e7 b7 92 c9 2c 39
       4.2106585e-05 0.00013465267 -2.763568e-05 0.00016478289
000140 96 a8 c7 37 9b bf e8 38 59 fa e2 38 d0 d0 ec 38
       2.3801153e-05 0.000110983114 0.00010823151 0.00011292251
000150 47 f8 b1 38 76 d6 66 38 4e ec 30 38 e7 90 c0 37
       8.486263e-05 5.5036006e-05 4.2181746e-05 2.2955659e-05
000160 4e 62 c6 38 10 09 e5 38 f0 d0 a3 38 70 b8 22 39
       9.4596864e-05 0.00010921259 7.811363e-05 0.00015518232
000170 95 ff ae 38 98 e0 b0 38 81 f0 11 38 94 4c 2d b7
       8.3445724e-05 8.434168e-05 3.479468e-05 -1.0329433e-05
000180 07 78 3f 38 ad a8 ce 38 73 40 78 38 e1 32 80 38
       4.5649733e-05 9.854264e-05 5.918783e-05 6.1129926e-05
000190 1e 67 34 37 4e 72 42 b6 5e c2 e3 b8 83 3a 49 38
       1.0752845e-05 -2.8974787e-06 -0.00010860407 4.7976628e-05
0001a0 b7 13 b6 37 02 28 51 b8 a6 17 ba 38 75 81 1b b8
       2.1705271e-05 -4.9866743e-05 8.873576e-05 -3.7075446e-05
0001b0 93 2e 41 39 fe c5 0a 39 bd 51 42 39 28 be 37 39
       0.00018423265 0.00013234463 0.00018531732 0.00017523079
0001c0 1a 27 c7 38 22 62 80 37 2e 5f be 38 31 56 82 b8
       9.496343e-05 1.5304486e-05 9.0776346e-05 -6.2149375e-05
0001d0 3b 55 0f 36 2a 92 b6 38 b3 0d ee b7 18 1c c3 38
       2.1358271e-06 8.7056615e-05 -2.837819e-05 9.3035575e-05
0001e0 a4 41 02 39 ac 43 95 38 31 6d 17 39 3c 6b c0 38
       0.00012422219 7.1174785e-05 0.00014441159 9.1752474e-05
0001f0 f5 27 7b 38 0c d6 6c 39 09 e4 1a 39 05 1a 06 39
       5.9880276e-05 0.00022586453 0.00014771534 0.00012788929
000200 12 b2 09 39 76 3e 69 38 e7 5c 84 39 87 2d e5 38
       0.00013131674 5.56097e-05 0.0002524622 0.00010928051
000210 19 79 1b 39 f5 0a 1a 39 0b e0 69 39 a3 64 a8 39
       0.00014827064 0.00014690666 0.00022304074 0.00032118437
000220 4b 3b 25 39 35 96 16 39 22 d6 73 39 d4 f6 60 39
       0.00015757715 0.00014361071 0.00023254057 0.00021454255
000230 4d ea 5b 39 45 a4 7d 39 f6 30 22 39 1e fa 65 39
       0.00020972751 0.00024189155 0.00015467763 0.00021932318
000240 db 99 aa 39 0f 21 d0 39 37 d2 cf 39 08 19 4f 39
       0.00032539558 0.00039697482 0.0003963874 0.00019750383
000250 4a 3e 25 39 b4 29 9e 39 1b f6 7c 39 d6 7f 73 39
       0.0001575883 0.0003016718 0.00024124274 0.00023221908
000260 7d b9 cb 39 b8 ff 72 39 07 c7 c2 39 07 61 4c 39
       0.00038857377 0.00023174181 0.0003715085 0.00019491102
000270 b2 70 c5 39 8f d9 0e 39 a1 5a 83 39 9d c8 7a 39
       0.00037658733 0.00013623222 0.0002505379 0.00023916592
000280 b6 05 5f 39 1b 3f 56 39 d1 c2 73 39 dd 12 e7 39
       0.00021269065 0.00020432139 0.0002324686 0.00044073808
000290 88 3d 27 39 05 88 9d 39 aa a9 c3 39 e9 9f d3 39
       0.00015949283 0.00030046716 0.00037319708 0.00040364199
0002a0 bd 2c d5 39 59 4e b7 39 0a 1a d8 39 75 f5 e7 39
       0.00040659858 0.00034962854 0.0004121813 0.00044242633
0002b0 f9 f5 ca 39 35 bd 01 3a 4f b1 c1 39 8d 47 18 3a
       0.00038711706 0.00049491535 0.00036943934 0.0005809002
0002c0 b0 30 be 39 af 17 ed 39 b3 bc f6 39 7f 5f f4 39
       0.000362759 0.00045221808 0.00047061368 0.00046610457
0002d0 38 69 0b 3a ef bc 34 3a ac 7c f6 39 6a c3 0a 3a
       0.0005318108 0.00068946084 0.00047013664 0.0005293401
0002e0 21 f6 07 3a 08 d6 07 3a cf c0 07 3a 04 67 fc 39
       0.00051865174 0.00051817345 0.0005178572 0.00048141938
0002f0 1e 25 13 3a 20 61 f9 39 e4 dd 0d 3a 7f 61 14 3a
       0.0005613136 0.00047565345 0.00054117874 0.000566028
000300 b5 49 2d 3a 3f 02 f1 39 a8 b3 23 3a 2e f8 1f 3a
       0.00066104095 0.00045968776 0.00062447274 0.00061023503
000310 30 e0 37 3a e5 59 1c 3a 32 98 31 3a 05 04 3e 3a
       0.00070143025 0.0005964323 0.0006774693 0.0007248524
000320 9e 8b 14 3a 56 a9 2e 3a 6f 67 13 3a 5f 14 11 3a
       0.00056665565 0.0006662806 0.0005623018 0.00055343466
000330 9d 73 47 3a 39 ae 26 3a 00 40 61 3a 8b 78 53 3a
       0.0007608475 0.00063583587 0.00085926056 0.00080669735
000340 a3 55 48 3a 5d 02 7f 3a 2a e4 4a 3a 22 22 4c 3a
       0.00076421554 0.000972783 0.00077396876 0.00077870686
000350 61 43 3d 3a b3 2d 24 3a ed 20 3c 3a 48 bc 59 3a
       0.0007219818 0.0006262913 0.0007176537 0.0008305949
000360 e6 36 61 3a 04 57 4d 3a 7c 73 38 3a 15 4d 2a 3a
       0.00085912494 0.0007833096 0.00070362515 0.00064964715
000370 06 85 36 3a 5e 2f 36 3a fe 2e 2d 3a 8f b7 54 3a
       0.0006962571 0.0006949807 0.00066064287 0.00081145106
000380 f4 29 25 3a 2e 83 29 3a 14 37 1d 3a 43 9d 1d 3a
       0.0006300502 0.00064663857 0.0005997282 0.00060125085
000390 26 75 4f 3a c8 0d 2b 3a 67 02 29 3a c0 67 23 3a
       0.000791388 0.0006525186 0.00064471964 0.00062334165
0003a0 29 4e 22 3a aa a8 02 3a 38 c4 30 3a 4d a0 1b 3a
       0.00061914563 0.00049842393 0.0006743106 0.00059366674
0003b0 da 14 18 3a 01 53 10 3a ed c0 25 3a f7 ac aa 39
       0.0005801447 0.00055055326 0.00063229987 0.00032553796
0003c0 34 b1 ed 39 25 92 ff 39 b3 11 d5 39 87 e5 ef 39
       0.0004533619 0.00048746276 0.00040639713 0.00045756644
0003d0 09 62 d4 39 f5 29 1d 3a 0c 32 95 39 c8 58 e4 39
       0.00040508833 0.0005995327 0.00028456782 0.00043553696
0003e0 e5 c1 d4 39 5a 1e c2 39 76 12 a4 39 80 1a a5 39
       0.00040580254 0.00037025177 0.00031294272 0.00031490996
0003f0 f9 3f c6 39 0a 87 8a 39 f8 a5 b2 39 a5 60 92 39
       0.00037813166 0.00026422023 0.00034074462 0.00027919296
