encoder_relu.pth (torch, 531758 bytes, 2 tensors)

weight f4 [64, 2048]
0.0024901247 -0.0040243496 0.0018529961 0.0014838262 0.002389347 -0.0010950079 0.0012707742 0.0041901916
0.0024812168 -0.00035273223 -0.000224757 -0.0006766012 0.0027699692 -0.0029405123 -0.0010267877 0.00057779223
-0.0029593238 0.0026800097 0.004049492 0.0044281497 -0.0028751786 0.0012020615 -0.0015897056 -0.0043590046
-0.0028409031 -0.0022128855 0.0013315378 -0.0027041128 -0.004339568 0.003561034 -0.0016313618 0.0030347963
-0.0028211211 0.0032511402 0.0031555856 0.002292367 -0.0010919262 -0.0004904703 0.0016055204 0.002802182
0.004391199 0.0024152822 -0.0019036661 -9.01949e-06 0.0031391464 0.0022075844 -0.0011681609 0.0027904147
0.003124244 -0.0018846863 -0.0011918343 -0.004268579 -0.004427633 0.0005265683 0.0013754128 8.6480424e-05
-0.002512598 -0.004034216 0.0029017515 -0.00040978065 -2.044501e-05 0.000251344 -0.0012790789 0.0030589777
0.001706485 -0.0042516394 0.0007398301 0.003717956 -0.0020156763 -0.00015410433 -0.0037890712 -0.0017319467
-0.0031779541 -0.002791963 -4.5700373e-05 0.004263418 0.004080747 -0.00086303725 -0.00065669056 -0.00017421035
0.0003759396 -0.0038987258 0.0001801723 -0.0023205902 -0.0009984729 0.0016438111 -0.0014001301 0.004062746
-0.0002551815 -0.0023342327 0.0040688766 0.0023274927 0.0033469286 -0.003158001 0.0036058817 -0.0043635415
-0.0010068686 0.0028792087 0.001365099 -8.969219e-05 -0.0028815754 0.004113162 -0.0037420432 0.0021350759
0.0015366763 0.0016826226 -0.0047276984 -0.0039162086 -0.00081304274 -0.005039386 -0.0021720266 -0.0036053248
0.0006435837 -0.002560154 -0.0003145917 0.00038028733 -0.0019536698 -0.0054375255 -0.0008589524 -0.0024357147
0.001670105 -0.005850051 -0.001715357 0.002324256 -0.00054414204 -0.0010320147 -0.0037975267 -0.004598977
-0.0028097858 -0.0015382837 0.0015094752 -0.0050319983 0.00012436627 -0.0048697474 -0.0031366253 -0.0045801844
0.00029083315 -0.003729766 -0.005068119 -0.003348504 0.003931223 0.00096311135 0.0011789215 0.001171954
-0.0046511227 -0.0032229682 -0.0012396789 0.0031046388 0.0020886953 -0.0038253092 -0.002002054 -0.0024845898
0.00095121 -0.0030692976 -0.003535979 -0.0042875987 -0.0024593303 0.0009100712 -0.00054848613 -0.004726268
-0.002439491 -0.0019137026 2.979352e-05 -0.0018164483 -0.0021302258 -0.0037143824 0.0014050398 0.00017110136
-0.0002806834 -0.0012151992 -0.0020939282 -0.0058380575 -0.007858754 -0.0010285584 -0.0072339256 -0.0013961801
-0.0045924233 -0.0016032986 -0.0042644315 -0.0048986655 0.00049044477 -0.005021757 -0.00061900524 -0.004081249
-0.005368568 -0.00043596944 -0.005704213 -0.00124374 -0.001611366 -0.0016915298 -0.0042364597 -0.0069884066
-0.007306215 -0.0027428663 -0.005067464 -0.0036219961 -0.00049730594 -0.006213313 -0.0035748875 -0.0047089485
-0.00838167 -0.0069665303 -0.002248521 -0.004292076 -0.0018952115 -0.006701872 -0.00048445648 -0.0025678524
-0.0041530356 -0.0065303245 -0.0037082178 -0.005402677 -0.0050505907 -0.008375513 -0.0052265185 -0.007367907
-0.0025932116 -0.0060200687 -0.005038073 -0.0072329002 -0.00333099 -0.0016426255 -0.0058205416 -0.005842013
-0.0067123496 -0.0045111864 -0.0037467815 0.0007745292 0.00035008852 -0.0020965785 -0.005408406 -0.0046141176
-0.00073114515 -0.0006874609 0.002289755 -0.0040348694 -0.0006110463 0.0012571133 -0.0018261989 0.0057652267
0.0010045771 0.005860637 -0.0019216394 0.0020608727 -0.0022303425 0.005293002 0.004860607 0.006131248
-0.0003045993 0.0041591804 0.0015203463 -0.0013419694 0.0005946623 0.0016835576 0.0030216782 0.0028173826
00000000: 5c31 233b b1de 83bb 3be0 f23a f27c c23a
00000010: 9796 1c3b 5e86 8fba 1b90 a63a e04d 893b
00000020: e99b 223b ebee b8b9 bfac 6bb9 f05d 31ba
00000030: 5f88 353b 9cb5 40bb 4795 86ba fb76 173a
00000040: 37f1 41bb 1aa3 2f3b 9ab1 843b 031a 913b
00000050: 7e6d 3cbb 7e8e 9d3a ab5d d0ba fbd5 8ebb
00000060: 722e 3abb 0f06 11bb ff86 ae3a 7c37 31bb
00000070: ef32 8ebb 3d60 693b 6bd3 d5ba 6fe3 463b
00000080: 8fe2 38bb 1511 553b f1cd 4e3b 893b 163b
00000090: f71e 8fba e892 00ba 5370 d23a d0a4 373b
000000a0: 0ce4 8f3b b649 1e3b 6f84 f9ba 6a52 17b7
000000b0: 23ba 4d3b 1fad 103b fa1c 99ba 64df 363b
000000c0: 1ec0 4c3b 9407 f7ba 5337 9cba 70df 8bbb
000000d0: ad15 91bb 6709 0a3a 3247 b43a d35c b538
000000e0: 66aa 24bb 7531 84bb 502b 3e3b d4d7 d6b9
000000f0: 5381 abb7 d2c6 8339 c4a6 a7ba 2179 483b
00000100: 23ac df3a 5651 8bbb 28f1 413a f3a8 733b
00000110: 7019 04bb 1197 21b9 1152 78bb 7d02 e3ba
00000120: 3945 50bb 5ef9 36bb 67ae 3fb8 24b4 8b3b
00000130: c9b7 853b 733d 62ba c225 2cba 3cac 36b9
00000140: c219 c539 c481 7fbb a2ec 3c39 0b15 18bb
00000150: 31df 82ba 2675 d73a 9284 b7ba c920 853b
00000160: e2c9 85b9 edf9 18bb 3654 853b d988 183b
00000170: 2558 5b3b 77f6 4ebb a850 6c3b 0afc 8ebb
00000180: e7f8 83ba 1bb1 3c3b 1fed b23a 2119 bcb8
00000190: d0d8 3cbb b4c7 863b 113d 75bb a1ec 0b3b
000001a0: 4d6a c93a 728b dc3a cfea 9abb 8a53 80bb
000001b0: 6022 55ba 6f21 a5bb 8f58 0ebb 5047 6cbb
000001c0: 2cb6 283a 42c8 27bb c9ef a4b9 4d61 c739
000001d0: 2409 00bb 452d b2bb 522b 61ba 83a0 1fbb
000001e0: 6de7 da3a c9b1 bfbb d4d5 e0ba 8c52 183b
000001f0: c1a4 0eba ab44 87ba eddf 78bb 04b3 96bb
00000200: 6224 38bb 3ca0 c9ba 95d9 c53a 76e3 a4bb
00000210: 5168 0239 6792 9fbb d78f 4dbb 5f15 96bb
00000220: f77a 9839 176f 74bb 7712 a6bb 9372 5bbb
00000230: 7dd1 803b 4f79 7c3a 0b86 9a3a 409c 993a
00000240: 7268 98bb 6f38 53bb b97c a2ba 3277 4b3b
00000250: 7ee2 083b 0ab2 7abb e434 03bb 80d4 22bb
00000260: 9f5a 793a 4526 49bb e2bb 67bb fc7e 8cbb
00000270: b72c 21bb d891 6e3a 48c8 0fba cfde 9abb
00000280: dedf 1fbb 34d5 faba 19ed f937 e415 eeba
00000290: 429b 0bbb ff6c 73bb 5029 b83a ac69 3339
000002a0: b028 93b9 5247 9fba 493a 09bb 2d4d bfbb
000002b0: 01c2 00bc b1d0 86ba 910a edbb 0800 b7ba
000002c0: 0a7c 96bb c625 d2ba a5bc 8bbb fc84 a0bb
000002d0: 3191 003a 8d8d a4bb bd44 22ba ffbb 85bb
000002e0: d0ea afbb d492 e4b9 68ea babb fd04 a3ba
000002f0: 7934 d3ba 52b6 ddba 00d2 8abb 01ff e4bb
00000300: f968 efbb a9c1 33bb f80c a6bb 035f 6dbb
00000310: a35d 02ba 0c99 cbbb a948 6abb 864d 9abb
00000320: 4653 09bc 7e47 e4bb ec5b 13bb 8ba4 8cbb
00000330: bf68 f8ba 619b dbbb a6fe fdb9 6a49 28bb
00000340: 3016 88bb 55fc d5bb 9205 73bb f108 b1bb
00000350: 6d7f a5bb 7339 09bc 3743 abbb 7c6e f1bb
00000360: dff2 29bb ff43 c5bb 6b16 a5bb f701 edbb
00000370: bd4c 5abb 5e4d d7ba 3eba bebb 5b6e bfbb
00000380: 45f3 dbbb 93d2 93bb 908c 75bb c609 4b3a
00000390: 168c b739 c066 09bb ff38 b1bb 0632 97bb
000003a0: 52aa 3fba b836 34ba b70f 163b f036 84bb
000003b0: 9f2e 20ba b9c5 a43a 115d efba 3aea bc3b
000003c0: 04ac 833a 960a c03b 85df fbba b50f 073b
000003d0: f02a 12bb eb70 ad3b ba45 9f3b a3e8 c83b
000003e0: a0b2 9fb9 bc49 883b 5b46 c73a 05e5 afba
000003f0: 1de3 1b3a d2aa dc3a 5907 463b d6a3 383b

bias f4 [64]
0.9843773 1.114142 1.3225373 0.849161 1.1925689 1.0240462 1.1172236 1.0945529
0.9081556 0.9849466 0.9780708 1.218766 1.2551763 0.9869564 0.83319485 0.9715356
1.2075511 1.2127568 1.102541 0.7377412 0.957444 1.0708551 1.0367134 1.110963
1.1016498 0.83949953 1.0296103 0.95389354 1.0257394 1.0236278 1.1311514 1.2977715
1.122552 0.9046105 0.9442147 1.0441878 1.1005512 1.0516 1.069409 1.0535648
0.94952923 0.8755691 1.1895413 0.85131955 0.9662854 0.9592051 1.1934364 1.0312446
1.1865561 1.035719 0.9349444 1.1410311 1.2558036 1.0057554 1.2692772 1.0747355
0.7963602 1.1166189 1.2286677 1.0057992 1.4780045 1.0141556 1.0020121 1.3282137
00000000: 2700 7c3f 349c 8e3f e748 a93f 9e62 593f
00000010: 19a6 983f f213 833f 2f01 8f3f 4f1a 8c3f
00000020: e37c 683f 7625 7c3f d962 7a3f 8600 9c3f
00000030: 9ea9 a03f 2da9 7c3f 424c 553f 8fb6 783f
00000040: 0991 9a3f 9d3b 9b3f 1020 8d3f 9bdc 3c3f
00000050: 0d1b 753f c811 893f 06b3 843f 0934 8e3f
00000060: dc02 8d3f 71e9 563f 45ca 833f 5e32 743f
00000070: 6e4b 833f 3c06 833f 92c9 903f 601d a63f
00000080: c9af 8f3f 8e94 673f 0eb8 713f f2a7 853f
00000090: ddde 8c3f d49a 863f 65e2 883f 36db 863f
000000a0: 5914 733f 4c25 603f e442 983f 14f0 593f
000000b0: 7b5e 773f 778e 753f 86c2 983f d3ff 833f
000000c0: 12e1 973f 7192 843f 8458 6f3f 4f0d 923f
000000d0: 2cbe a03f 98bc 803f ad77 a23f ef90 893f
000000e0: 43de 4b3f 5eed 8e3f fc44 9d3f 07be 803f
000000f0: 402f bd3f dacf 813f ef41 803f e802 aa3f
