encoder_elu.pth (torch, 531741 bytes, 2 tensors)

weight f4 [64, 2048]
0	0xbaaa47ad	-0.0012991332
1	0x3b1a1264	0.0023509497
2	0xbb632417	-0.0034658962
3	0x3b5815df	0.003297202
4	0xbaed1811	-0.0018088837
5	0x3b72a334	0.0037023546
6	0x3b1330a7	0.002245942
7	0xbb092607	-0.0020927207
8	0x3ae61f75	0.0017556982
9	0xbade955a	-0.0016981766
10	0x39f7c0ee	0.00047255255
11	0xbb23e58d	-0.002500865
12	0x3a8b863e	0.0010644866
13	0xbb5ead25	-0.0033977714
14	0x3ac01733	0.0014655351
15	0x3b645080	0.003483802
16	0x3a6a43a9	0.0008936474
17	0x3b36910d	0.0027857453
18	0x3b6b9b9b	0.0035950902
19	0x3ab58662	0.0013849253
20	0xbb06a89d	-0.0020547279
21	0xbb32bc27	-0.0027272792
22	0xbb6bf64d	-0.003600496
23	0x3b4eff15	0.0031585146
24	0x3aa99925	0.0012939317
25	0xba2e0fcc	-0.0006639927
26	0x3b72fc66	0.003707671
27	0xbb4b38fb	-0.0031009305
28	0xbb56165e	-0.003266714
29	0xbb1cb69f	-0.0023912562
30	0xba15b4b3	-0.0005710825
31	0xba31de8b	-0.00067851756
32	0xb900f6de	-0.00012298996
33	0x3b79deb5	0.0038127129
34	0x3aa79e28	0.0012788223
35	0x3a20cb81	0.000613384
36	0xba1c33f8	-0.00059586717
37	0x3acd57d1	0.001566643
38	0x3b45ba74	0.003017095
39	0xbb8995c7	-0.004198763
40	0x3b4a8186	0.0030899956
41	0xbb757dac	-0.003745894
42	0x3b270833	0.0025487065
43	0xbb1a83c2	-0.002357707
44	0xbb46a9b4	-0.0030313553
45	0xba9803f0	-0.0011597853
46	0xbb8d4eee	-0.0043123877
47	0xb7b1978f	-2.117062e-05
48	0x3b6e7571	0.0036385919
49	0x3ae3ab99	0.0017369866
50	0xb9d639f7	-0.00040860448
51	0x3aa1b462	0.0012337083
52	0x3a0b2085	0.0005307275
53	0x3afc54c9	0.0019251342
54	0xbb2bb510	-0.002620045
55	0xba29bf7b	-0.0006475371
56	0x3b2cac5b	0.002634785
57	0xbb45904b	-0.003014582
58	0x3aefca5e	0.0018294563
59	0xbb776cf9	-0.0037754162
60	0xbb153d6c	-0.0022772206
61	0xbaf8655c	-0.0018951106
62	0xbb2e404d	-0.002658862
63	0xb9c994fc	-0.0003844871
64	0x3b29a615	0.0025886346
65	0x3a904f4d	0.0011009962
66	0x3a337322	0.0006845464
67	0x3b010287	0.0019685344
68	0xbad7f3ac	-0.0016475818
69	0xbb03d570	-0.0020116232
70	0xbb7c93d5	-0.0038540263
71	0x3ae840e0	0.001771953
72	0xbb05bf1d	-0.0020408102
73	0x3b55a89d	0.0032601722
74	0x3b39c626	0.0028346865
75	0xba80d7f6	-0.0009829986
76	0xbb25cdb4	-0.002529961
77	0xbb57e0cb	-0.0032940384
78	0x3b5092da	0.0031825812
79	0x3a26ebfa	0.00063675607
80	0xbb0c797a	-0.002143471
81	0x3a2c9a6d	0.00065842905
82	0xbad67b4b	-0.0016363648
83	0xbb88c994	-0.0041744206
84	0xbb7377e3	-0.0037150315
85	0x3b2028a9	0.0024438298
86	0x3acc1925	0.0015571458
87	0xbb8d54d9	-0.004313093
88	0x3b3eb081	0.0029096904
89	0x39ed12d3	0.00045218188
90	0xbb0b8e6b	-0.0021294605
91	0x38cb16db	9.6840515e-05
92	0x39e8b120	0.00044382457
93	0x3a09e7c3	0.00052606704
94	0x3b0f045c	0.0021822667
95	0x3808cac3	3.2613763e-05
96	0x3a112981	0.00055374956
97	0x39b8fa8a	0.0003528188
98	0xba7c51f7	-0.0009625251
99	0x3b08bf35	0.0020865921
100	0xbad86c0c	-0.0016511693
101	0x3affb834	0.0019509853
102	0x3a39cb0a	0.0007087445
103	0x3b0c9d4f	0.0021456068
104	0xbb692a65	-0.0035578248
105	0xbaa5d370	-0.0012651514
106	0xba825332	-0.0009943007
107	0xbb4efd8a	-0.0031584227
108	0xbaafe6b5	-0.0013420196
109	0x3ae747a8	0.0017645257
110	0x3acee7c0	0.001578562
111	0xbb042ddd	-0.0020168938
112	0x3b0986b8	0.002098484
113	0xba5e73c4	-0.00084858784
114	0xbb242dfc	-0.0025051823
115	0xbb8f25ce	-0.0043685203
116	0x39973b00	0.00028844923
117	0xba90dc78	-0.0011052033
118	0x3b4305df	0.0029758138
119	0xbb5d36e9	-0.0033754653
120	0x3b47bc20	0.0030477121
121	0xba0fe3a4	-0.0005488938
122	0xbb28015f	-0.0025635583
123	0xbb6efc4d	-0.00364663
124	0xba214033	-0.0006151229
125	0xbb52aa22	-0.0032144864
126	0xba2920a0	-0.00064517
127	0xbb601e2b	-0.003419767
128	0x3b6167e3	0.0034394197
129	0xba96ab5f	-0.0011495164
130	0x3a16185d	0.00057256763
131	0xbaea4e9c	-0.0017876211
132	0xbafce7b2	-0.0019295125
133	0x3a8ac78f	0.0010588038
134	0x3a8b8657	0.0010644895
135	0x3aab2197	0.0013056275
136	0xba52bf12	-0.0008039336
137	0xba83c4b9	-0.0010053135
138	0xba268c33	-0.0006353289
139	0x3b931aec	0.0044892933
140	0xbb25cc93	-0.0025298938
141	0xba1bb9f8	-0.0005940492
142	0xbb022532	-0.0019858596
143	0x3bab6dea	0.0052316086
144	0xbb0efe80	-0.0021819174
145	0x3a816a7a	0.0009873651
146	0x398cfe56	0.00026892376
147	0x3ab9c6c9	0.0014173622
148	0xba9de792	-0.0012047163
149	0x3b5d5fcb	0.003377902
150	0xba9ad334	-0.0011812211
151	0x3b99c79d	0.004692985
152	0x3bd1a887	0.006398264
153	0x3856215d	5.1052648e-05
154	0xb7604842	-1.3368264e-05
155	0x3bbd1dce	0.0057713753
156	0x3bd0bab0	0.006369911
157	0xb8928d76	-6.988172e-05
158	0x3bcc260d	0.006230122
159	0x3ade3850	0.0016954038
160	0xbac31a0f	-0.0014885085
161	0x3b0dd963	0.0021644465
162	0x3babe5d7	0.005245905
163	0x3b9babf9	0.0047507253
164	0x3b3e5172	0.0029040244
165	0xba4b0456	-0.00077444816
166	0x3b0ea848	0.0021767784
167	0x3b5af403	0.0033409602
168	0xba324fb7	-0.00068020396
169	0x3b361e83	0.0027789182
170	0x3b801825	0.0039091283
171	0x3b6f71fb	0.0036536444
172	0x3ad17137	0.0015979175
173	0x3b616588	0.0034392793
174	0x3ac11fb4	0.001473418
175	0x3a0a4a03	0.0005275311
176	0x3a1133fa	0.0005539056
177	0x3b9eb078	0.004842814
178	0x3b5e380b	0.0033907916
179	0x3bd22d80	0.0064141154
180	0x3bcdff49	0.006286536
181	0x3b1bdc60	0.0023782477
182	0x3c06646f	0.008202656
183	0x3c060f09	0.008182296
184	0x3c2a40f8	0.010391466
185	0x3c05913a	0.0081523005
186	0x3ba693bf	0.0050835307
187	0x3c3e033c	0.011597451
188	0x3c0e60d6	0.00869008
189	0x3c32e751	0.010919408
190	0x3c22269e	0.009896902
191	0x3bb9b48b	0.0056672744
192	0x3c4dafbd	0.012554106
193	0x3c2cc68a	0.010545382
194	0x3c20bb98	0.009810351
195	0x3c42f207	0.011898524
196	0x3c31cc50	0.010851935
197	0x3c043df5	0.008071412
198	0x3bc3e50f	0.0059782336
199	0x3c23c51d	0.009995726
200	0x3bec9572	0.0072199637
201	0x3c1b745b	0.0094881905
202	0x3befc213	0.0073168366
203	0x3c057336	0.008145144
204	0x3c180dd6	0.0092806425
205	0x3c63ac90	0.013896123
206	0x3c48868c	0.01223911
207	0x3c214c89	0.009844908
208	0x3c1b8ffc	0.009494778
209	0x3c24e04d	0.010063243
210	0x3c4eda8f	0.012625351
211	0x3b92375d	0.004462166
212	0x3c021acb	0.007940958
213	0x3c3f127f	0.011662125
214	0x3c1d734e	0.00961001
215	0x3c214dbb	0.009845193
216	0x3bc3430d	0.005958921
217	0x3bef2f62	0.0072993496
218	0x3bc77580	0.006087005
219	0x3c0e3134	0.008678723
220	0x3c028d58	0.007968269
221	0x3c221d44	0.009894673
222	0x3c021698	0.007939957
223	0x3c27385c	0.010206308
224	0x3bc70f1a	0.0060747983
225	0x3c0ad582	0.008473756
226	0x3c034ae9	0.008013465
227	0x3c1a264b	0.009408544
228	0x3c0c12eb	0.008549432
229	0x3c216b92	0.009852307
230	0x3bdbceaa	0.006707986
231	0x3c1deab0	0.009638473
232	0x3b74a353	0.0037328794
233	0x3c05ba51	0.008162097
234	0x3b623d9e	0.003452159
235	0x3c13d2fa	0.009022469
236	0x3bfb068f	0.007660694
237	0x3c0da476	0.008645168
238	0x3c267d1e	0.010161666
239	0x3c06f7d7	0.008237801
240	0x3be8ca3b	0.007104186
241	0x3baab15d	0.0052091316
242	0x3c184cb7	0.009295634
243	0x3c0351b9	0.00801509
244	0x3c4abdf0	0.012374386
245	0x3c4bde15	0.012443085
246	0x3bacf341	0.0052780216
247	0x3c1494bb	0.009068663
248	0x3bde582c	0.0067854133
249	0x3c27f9ae	0.010252399
250	0x3bf63e90	0.0075147822
251	0x3c2e1686	0.010625487
252	0x3b6c137c	0.0036022356
253	0x3c0bd299	0.008534097
254	0x3be650d1	0.007028677
255	0x3c3bf81a	0.011472726

bias f4 [64]
0	0x3ec8625c	0.39137542
1	0x3f26ac66	0.6510681
2	0x3f033e00	0.5126648
3	0x3f1bf5c9	0.60921913
4	0x3f279d1d	0.6547411
5	0x3f16ee02	0.5895692
6	0x3f195001	0.598877
7	0x3f019dcd	0.5063141
8	0x3f1d1ffa	0.6137692
9	0x3f1fdfcf	0.6245088
10	0x3f4df24d	0.80447847
11	0x3f258d57	0.6466879
12	0x3f2869cd	0.6578644
13	0x3f157fce	0.5839814
14	0x3ef7a40e	0.4836735
15	0x3f22af90	0.6354914
16	0x3ef3b7fc	0.47601306
17	0x3f04eedd	0.51926976
18	0x3f21c49d	0.63190633
19	0x3f230091	0.6367274
20	0x3f137d8d	0.5761345
21	0x3eedba94	0.4643141
22	0x3f0cc433	0.54986876
23	0x3f3ce042	0.7377969
24	0x3f339b02	0.701584
25	0x3f04d1fb	0.51882905
26	0x3f094153	0.536153
27	0x3f0e657a	0.5562359
28	0x3f03dc35	0.51507884
29	0x3f24c413	0.64361686
30	0x3f0471d9	0.5173622
31	0x3f116beb	0.56805295
32	0x3f3b5e6f	0.7319097
33	0x3f0170ac	0.5056255
34	0x3f01f8c3	0.50770205
35	0x3f276305	0.65385467
36	0x3f1b8a43	0.60757846
37	0x3f0d0d31	0.55098253
38	0x3f13df15	0.5776227
39	0x3f08b3b3	0.533992
40	0x3effa35d	0.49929324
41	0x3f12d0a7	0.5734963
42	0x3f16cf32	0.58909905
43	0x3f3d0adc	0.73844695
44	0x3f116ff6	0.56811464
45	0x3ef6aa98	0.48177028
46	0x3f127640	0.57211685
47	0x3f22c0d6	0.63575494
48	0x3edfcadd	0.4370946
49	0x3f2141be	0.6299094
50	0x3f16dea8	0.58933496
51	0x3f04bde1	0.5185223
52	0x3f2fbbfb	0.6864621
53	0x3f04e6cb	0.5191466
54	0x3f131c5f	0.57465166
55	0x3f1939be	0.5985373
56	0x3f1914f9	0.59797627
57	0x3f2711b3	0.6526138
58	0x3f1de2ed	0.61674386
59	0x3f206065	0.62647086
60	0x3f25f35b	0.64824456
61	0x3f154c94	0.58319974
62	0x3f2760b0	0.6538191
63	0x3f12c664	0.5733397
