encoder_linear.pth (torch, 529444 bytes, 2 tensors)

weight f4 [64, 2048]
000000 a6 26 f5 b8 c2 68 16 3b 66 e7 16 bb a4 60 43 3a
       -0.00011689709 0.0022950624 -0.0023026108 0.000745306
000010 cb 6d a3 ba 42 04 c8 39 e0 3e 3f ba ef 70 cf ba
       -0.0012468634 0.00038150145 -0.0007295441 -0.0015826504
000020 fd 41 e4 3a 72 04 06 bb b6 32 23 3b ab 87 a9 ba
       0.0017414686 -0.0020449427 0.0024902052 -0.0012934109
000030 28 2b 8a 3a e8 98 de 39 3d 82 93 3a f8 f6 00 39
       0.0010541426 0.00042457064 0.0011254024 0.00012299034
000040 ee 82 86 3a 88 47 23 3b 1b ee d1 ba 55 fc 4a 3a
       0.0010262409 0.0024914462 -0.0016016396 0.0007743289
000050 bd 64 ea 3a dc 9b 1e 3a 0c 24 a3 39 97 ec 9a 3a
       0.0017882806 0.00060504465 0.0003111664 0.0011819777
000060 6d 1d c5 ba e7 43 1d 3a 38 da 83 3a 2b 8c a4 ba
       -0.0015038677 0.0005999193 0.0010059541 -0.001255398
000070 2e 8f 22 3b ef 6a 62 b9 3c e1 25 38 73 38 cd 3a
       0.002480458 -0.00021592875 3.954883e-05 0.0015657082
000080 1d 87 87 3a 52 ce 38 3a 90 ce 83 3a 52 7c 2e bb
       0.001033995 0.0007049787 0.0010056067 -0.0026624394
000090 38 3d 0e 39 d3 ae e9 ba f3 80 f2 b9 1e cc b6 3a
       0.00013564981 -0.0017828591 -0.00046253912 0.001394633
0000a0 8f 6f ca 39 b7 84 d2 39 60 06 02 bb bc 59 b7 ba
       0.0003861156 0.00040153202 -0.0019840226 -0.0013988535
0000b0 60 3c 94 ba 8b 61 06 bb 6f c4 a5 3a dd 0d 2b bb
       -0.0011309497 -0.0020504917 0.0012647043 -0.0026100792
0000c0 da f0 db ba 92 10 f4 39 7d 68 00 3a cb e1 ff 3a
       -0.0016780153 0.00046551652 0.00048983825 0.0019522248
0000d0 51 52 d1 3a 54 c5 e8 3a 68 86 d6 ba 19 2a f7 ba
       0.0015969967 0.0017759004 -0.001636696 -0.001885715
0000e0 6a 19 fe ba 7f 7f bf b9 58 32 b4 b8 25 aa 08 ba
       -0.0019386236 -0.0003652535 -8.592446e-05 -0.0005213342
0000f0 77 a4 ce ba 02 17 46 ba d3 ef f1 3a 16 65 b6 b9
       -0.0015765567 -0.0007556529 0.0018458314 -0.0003478906
000100 d7 a6 5b 3a f1 59 b7 3a f9 38 a7 3a aa 44 63 ba
       0.0008379048 0.0013988597 0.0012758068 -0.00086695945
000110 7b e0 9d 3a 6f 20 2a bb 33 4b 17 b9 a8 b2 ca 3a
       0.001204505 -0.0025959273 -0.00014428496 0.0015464621
000120 36 ba ec ba 0b 34 0a bb 9f cc 01 3a 59 ae 9b 3a
       -0.0018060866 -0.002108815 0.00049514504 0.0011877521
000130 5f 1a 34 bb c2 39 86 3a 58 8c bc 3a 49 5d 67 3a
       -0.0027481539 0.0010240602 0.0014385087 0.0008825851
000140 30 33 1e 3b 73 ba cd 3a ee bf f0 b9 36 a7 68 ba
       0.0024139397 0.0015695825 -0.00045919366 -0.0008875014
000150 7a 58 bc ba 5e 83 ea ba ff c3 40 3a 0f 82 53 ba
       -0.001436963 -0.0017891934 0.00073534244 -0.00080683915
000160 6d 9a fc 3a 03 b9 2e 39 07 60 ed ba 1b cd 04 bb
       0.0019272097 0.00016662855 -0.0018110283 -0.0020263854
000170 6b a0 d2 b9 d4 1b 4e ba 7e e0 7b 39 96 7b 3e b9
       -0.00040173842 -0.0007862423 0.00024020855 -0.00018165851
000180 43 95 b4 3a 1b 93 eb ba 1f ed d4 39 44 c5 be 3a
       0.0013777394 -0.0017972918 0.0004061246 0.0014554639
000190 a1 e5 ec 39 da 5b 4a ba a0 d4 e9 3a 93 fc 20 bb
       0.00045184515 -0.00077193754 0.0017839856 -0.0024564608
0001a0 7e ed 2c bb 77 46 25 bb 80 60 9d 3a 67 93 09 bb
       -0.0026386674 -0.0025219002 0.0012006909 -0.00209924
0001b0 c3 95 31 bb 01 f8 c2 ba 1b be 7a ba d1 bb 4d ba
       -0.0027097322 -0.0014874936 -0.0009565071 -0.0007848116
0001c0 1b c1 73 bb b0 67 d1 39 fb 9f 77 bb b2 4e 8e ba
       -0.0037193957 0.0003994084 -0.0037784565 -0.0010857193
0001d0 47 7b 5d bb 60 65 f0 ba a3 05 25 ba 4a 52 03 bb
       -0.0033795403 -0.0018340759 -0.00062950904 -0.0020038062
0001e0 b2 bf 65 bb 07 d2 51 ba db 40 3e bb a4 5c d8 b9
       -0.0035056886 -0.0008004014 -0.0029030356 -0.00041267753
0001f0 5b 24 8a bb 2a db 5e bb 89 38 7a b9 b1 cc 02 ba
       -0.0042157597 -0.0034005144 -0.00023862919 -0.0004989608
000200 ad c3 db ba 94 dd 36 bb 08 e7 70 ba 1e 9b cf ba
       -0.001676669 -0.0027903067 -0.00091897 -0.0015839075
000210 bd c5 50 bb bb 76 0e ba bd ad a4 ba ac bc 3b bb
       -0.0031856142 -0.00054345623 -0.0012563985 -0.0028646393
000220 8c a6 3f bb 18 c7 a3 ba 1a 68 c8 ba 84 bf 48 bb
       -0.0029243557 -0.0012495248 -0.0015289814 -0.003063173
000230 47 81 a9 ba f2 6d 4f bb 56 2c 5f bb b7 9d 9e bb
       -0.0012932204 -0.0031651226 -0.0034053526 -0.0048405784
000240 ab 1a 7b bb 3d 5b 2b bb 87 b7 43 bb 60 cb df 39
       -0.0038315456 -0.0026146912 -0.002986403 0.000426854
000250 dc a5 22 ba bd 83 25 bb c5 9f 6c bb 32 fa f3 39
       -0.00062045245 -0.0025255524 -0.0036105972 0.00046534982
000260 20 c0 4c bb 57 f0 0d bb b3 30 04 3b 55 c6 33 b7
       -0.0031242445 -0.0021658146 0.0020170629 -1.0715409e-05
000270 ac 4e b4 ba 24 8c 61 3a de 61 f1 39 4f 0b ab 3a
       -0.0013756356 0.00086039514 0.0004604002 0.0013049635
000280 07 a4 f7 3a c4 41 35 bb d8 7e 83 3a 00 85 c7 ba
       0.0018893488 -0.0027657608 0.0010032309 -0.0015222132
000290 74 7e 3e bb 6c c4 5f 3a 4b 93 06 bb 7d e1 03 bb
       -0.002906707 0.0008536044 -0.002053457 -0.0020123415
0002a0 12 87 4f ba 71 ef be b9 51 1b d5 b9 17 d0 84 b9
       -0.00079165504 -0.00036418022 -0.00040646878 -0.0002533204
0002b0 15 96 32 3a 45 52 29 ba 7e 53 a8 ba 9a 9a 42 b9
       0.0006812525 -0.00064590975 -0.0012842265 -0.00018558875
0002c0 db ee 19 bb 2e 16 94 39 b7 4e 98 b9 f4 b5 15 bb
       -0.0023488316 0.00028245285 -0.00029050346 -0.0022844048
0002d0 09 ce f4 b9 f9 59 51 bb d5 80 00 3a b8 47 11 bb
       -0.00046692815 -0.0031944497 0.000490201 -0.0022167992
0002e0 59 90 46 bb 14 d0 6d ba af f3 f6 3a c1 7d c6 3a
       -0.003029844 -0.00090718386 0.0018840934 0.0015143679
0002f0 3c 99 33 3b fa bc d8 3a 09 7f 07 3b e2 5a 76 3b
       0.0027404567 0.0016535812 0.0020675084 0.0037590791
000300 63 24 d0 39 18 32 8a 3a c1 5b 1a 3a e9 fd b6 3a
       0.00039699962 0.0010543494 0.0005888306 0.0013961169
000310 3f e2 35 3b 9e 3f e1 3a 4d da 82 3b c3 26 61 3b
       0.0027753261 0.0017185097 0.0039933086 0.003435538
000320 2d 6e 49 3b bc df 2e 3b 13 ee 5b 3b cc 91 8f 3b
       0.0030735836 0.002668365 0.0033558651 0.004381394
000330 44 4d 1c 3b 2b 7d 2a 3b 10 c5 90 3b 78 c5 9e 3b
       0.0023849765 0.0026014547 0.004418023 0.0048453175
000340 3a 36 a2 3b fb 31 4a 3b 13 6b 8e 3b dd 0e 9d 3b
       0.004950312 0.0030852545 0.0043462603 0.0047930316
000350 83 17 fa 39 28 84 cc 39 ce 7c 8f b9 b8 2a c4 3a
       0.00047701233 0.00039008376 -0.00027368072 0.0014966344
000360 27 dd 9b 3a 34 7b 3d ba 42 fb 0b 3a 96 b9 77 39
       0.001189147 -0.00072281365 0.00053398695 0.00023624892
000370 cf 0c 68 bb 86 d6 86 bb 4b ca 5e bb a0 ed c1 ba
       -0.0035408025 -0.0041149287 -0.0033995088 -0.0014795549
000380 68 15 86 bb 20 ec cc ba cf d7 62 bb ee c2 9e 39
       -0.0040919073 -0.0015634336 -0.0034613495 0.00030281342
000390 47 fc 25 3a 58 9b 34 bb 03 aa 2c 3a ab cc ed ba
       0.0006331843 -0.0027558412 0.0006586613 -0.0018142661
0003a0 89 3c d1 ba db d2 54 ba 89 61 49 3b b8 84 fd 39
       -0.0015963475 -0.0008118578 0.0030728301 0.00048354804
0003b0 33 bf 43 3b 10 b4 ba 3a 2f 6d 6d 3b 7f a3 8a 3b
       0.0029868602 0.0014244337 0.0036228409 0.004230916
0003c0 08 4d cf 3b 89 5a 0e 3c b0 c3 08 3c e8 b6 21 3c
       0.0063263215 0.008688577 0.008347437 0.009870268
0003d0 02 9f 18 3c 40 fa 4f 3c 39 de 38 3c 7f de 68 3c
       0.009315254 0.012693942 0.011283451 0.014213203
0003e0 fb a3 7c 3c 88 3a 6c 3c 63 04 6e 3c 8f a9 74 3c
       0.015419955 0.014418252 0.014527413 0.014933004
0003f0 3e d8 6b 3c cc 40 51 3c 87 d3 74 3c 09 1c 72 3c
       0.014394818 0.012771796 0.01494301 0.014777192

bias f4 [64]
000000 af 68 06 bc 5b 92 3a ba 53 1c 91 ba fb 3c 6d bc
       -0.008203669 -0.00071171456 -0.0011071063 -0.014479871
000010 a1 ec 47 bb 80 da 76 3a 7e 95 48 3c be a9 80 bb
       -0.0030506032 0.00094167143 0.012242673 -0.003926485
000020 95 c7 3a 3b 9f bf 5d 39 bd 26 81 3b 80 79 0e 3c
       0.0028500308 0.00021147587 0.0039413855 0.00869596
000030 67 b7 3a 3c c5 5c 27 ba eb 7b 83 3b 94 9a 31 3c
       0.011396266 -0.0006384368 0.004012575 0.010840077
000040 ae fd b0 bb 9b 5e 16 bc 40 e7 11 3b ab d7 55 bc
       -0.0054013347 -0.009177829 0.002226308 -0.0130519075
000050 76 4a f1 bb 02 aa a1 3b c3 7d f9 3b 24 61 49 bc
       -0.0073636128 0.0049335966 0.007613869 -0.012291227
000060 c4 0b 7a bc 7c ca 28 3c e9 7c f4 3b f0 29 1c bc
       -0.015261594 0.010302182 0.0074611795 -0.009531483
000070 37 24 02 bb d5 93 34 bc 95 88 05 3c 8a 7c 98 bb
       -0.0019858012 -0.011021574 0.0081502395 -0.004653518
000080 f7 b1 ed bb 89 cf a5 bb 46 c6 c7 3b d9 8f 56 3c
       -0.007253881 -0.0050601405 0.006096634 0.013095819
000090 05 b7 16 bc 67 e7 82 3b 78 5f 89 3b d3 fd 9c 3b
       -0.009198909 0.0039948705 0.004192289 0.0047910004
0000a0 57 5f 18 bb 3d 52 4b 3b 4e ad 8b bb d5 db f5 3b
       -0.0023250186 0.003102436 -0.004262603 0.0075030127
0000b0 0f 9b 30 3a f9 7e 94 bb 6b 3a 24 3b 9c 97 6f bb
       0.0006736973 -0.004531738 0.0025059234 -0.0036558872
0000c0 86 a5 4c bc 46 f4 1a 3c d5 9c e7 3a 10 d7 32 3b
       -0.012490636 0.009457653 0.0017670641 0.0027288832
0000d0 71 6e 65 3c 87 67 c6 bb 67 ae 2f bc 92 98 a2 3b
       0.014003382 -0.006054822 -0.010722733 0.0049620355
0000e0 e8 06 be ba 72 86 9b 3b 3b a0 b2 3a 28 1d 16 ba
       -0.0014497908 0.0047462517 0.0013628075 -0.00057263905
0000f0 d0 9e 9f bb 6e 77 ea bb 6f 6a 71 3c 01 49 50 bc
       -0.004871227 -0.0071553504 0.014734848 -0.012712718
